models/vq_encoder_model_finetune.pkl (torch_old, 867782 bytes, 22 tensors)

weight f4 [80, 12]
0	0x3e0bbd2c	0.13646382
1	0x3d294dbd	0.041333903
2	0xbe9ee1c4	-0.3103162
3	0x3dc23a22	0.09483744
4	0xbe92588c	-0.2858318
5	0x3e03ef2c	0.12884206
6	0x3e3afb94	0.18260032
7	0x3e55cc17	0.20878635
8	0x3d2fe1e9	0.042940054
9	0x3eeb7525	0.45987812
10	0xbead1c68	-0.33810735
11	0xbe02b9db	-0.1276621
12	0xbe869cb7	-0.2629144
13	0x3def03da	0.116706565
14	0x3e1518e9	0.14560284
15	0x3daf3650	0.08555281
16	0x3e89fd9f	0.2695131
17	0xbeaeb915	-0.3412558
18	0x3ec9e7ce	0.39434665
19	0x3e7046bb	0.23464482
20	0x3e792784	0.2433148
21	0x3e77740a	0.24165359
22	0x3e5dc81b	0.21658365
23	0x3d87872f	0.06617581
24	0xbd84519e	-0.0646088
25	0xbe9385dd	-0.28813067
26	0x3dc08f99	0.09402389
27	0xbe2ef95d	-0.17087312
28	0xbe3ab523	-0.1823316
29	0x3e8d3fdb	0.2758778
30	0xbf14f0fa	-0.581802
31	0xbe55fba9	-0.20896782
32	0xbc64e113	-0.0139696775
33	0xbe3ca71e	-0.18423125
34	0xbea4075c	-0.32036865
35	0x3d8d4a22	0.06898905
36	0xbe89a071	-0.2688022
37	0x3e0094e0	0.12556791
38	0x3dc35d85	0.09539322
39	0xbd8700a7	-0.06591921
40	0x3e0fe2bc	0.14051336
41	0x3db2423b	0.08704039
42	0xbf09bcdd	-0.5380381
43	0x3e074b14	0.13212234
44	0xbc56d7d8	-0.013112985
45	0xbeabf7dc	-0.3358754
46	0x3e60e227	0.2196127
47	0xbe97ffe2	-0.2968741
48	0x3de89011	0.113556035
49	0x3dc1ac9c	0.09456751
50	0x3ecb38b8	0.3969171
51	0x3e881ed6	0.26586026
52	0x3e5a63a8	0.21327078
53	0x3921589d	0.00015387168
54	0x3ebcc669	0.36870125
55	0x3e093863	0.13400416
56	0x3e4c10ad	0.19928236
57	0xbeb3063d	-0.34965697
58	0xbe3521b0	-0.17688632
59	0xbe3c522a	-0.18390718
60	0x3dc41a77	0.0957536
61	0xbe5874ef	-0.21138357
62	0x3e4e6325	0.20155008
63	0xbdb5956a	-0.08866389
64	0xbe616dee	-0.22014591
65	0x3e9ef48f	0.31045958
66	0x3f0822f5	0.5317834
67	0x3da331f8	0.07968515
68	0xbe57ed3d	-0.21086593
69	0x3e8c6658	0.27421832
70	0x3eda45bb	0.42631325
71	0xbde576a2	-0.11204268
72	0x3e90c2d3	0.2827364
73	0xbd872e02	-0.06600572
74	0xbea7de1c	-0.32786644
75	0xbe697ff3	-0.22802715
76	0xbe805efa	-0.2507246
77	0x3dd9ec5f	0.10640787
78	0xbded7923	-0.115953706
79	0x3d52b0fc	0.051438317
80	0x3eb06ebb	0.3445948
81	0xbec01239	-0.37513903
82	0x3dbcdffa	0.09222408
83	0x3e7403fa	0.23829642
84	0xbe6c07a8	-0.23049796
85	0x3e8fedaf	0.28111026
86	0xbe2b4e31	-0.16729046
87	0xbdb72b65	-0.08943824
88	0x3cc73d0a	0.024321098
89	0x3c126a4e	0.008936478
90	0x3d9a8cfc	0.07546422
91	0xbdddca51	-0.108296044
92	0xbde6b4a6	-0.11264925
93	0xbec43557	-0.38321945
94	0xbdfb6067	-0.12274247
95	0x3d315e0a	0.043302573
96	0xbe13865b	-0.14406721
97	0xbe4d6671	-0.2005861
98	0xbeb0a05f	-0.34497353
99	0xbb0db5ec	-0.0021623326
100	0x3e835cd1	0.2565675
101	0x3dd6e18e	0.1049224
102	0x3f102d8e	0.5631951
103	0x3de9497f	0.113909714
104	0x3e611e02	0.21984103
105	0xbdf85c6e	-0.121270046
106	0xbe6d40a2	-0.23169187
107	0x3d7ed8b0	0.062218368
108	0xbeb0ca49	-0.3452933
109	0x3dd1a7a9	0.10237057
110	0xbe8ea225	-0.2785808
111	0xbd73db48	-0.059535295
112	0x3e4ebc7c	0.20189089
113	0x3d6958e1	0.056969527
114	0x3eb6864a	0.3564933
115	0xbe476e2e	-0.19475624
116	0xbe8701ec	-0.26368654
117	0xbca4201f	-0.020034848
118	0x3e266a44	0.16251475
119	0xbe393845	-0.18087871
120	0xbb85f928	-0.0040885396
121	0x3c654a17	0.013994715
122	0xbe383ea2	-0.17992643
123	0x3da8bf02	0.08239557
124	0xbe8e7bed	-0.27828923
125	0x3e1cb41b	0.1530308
126	0xbf09ab79	-0.5377727
127	0xbd345ef9	-0.044035885
128	0xbe81438c	-0.25246847
129	0x3ee2fae4	0.4433204
130	0xbe0b7980	-0.13620567
131	0xbe656132	-0.22400358
132	0x3e281545	0.16414364
133	0xbeb59dfc	-0.35472095
134	0x3aaa595b	0.0012996601
135	0x3d52aed0	0.051436245
136	0x3e6df749	0.23238863
137	0x3dc03ac7	0.09386211
138	0xbee32ade	-0.44368643
139	0x3c3c49ea	0.011492232
140	0xbe75d229	-0.24005951
141	0x3e976654	0.29570258
142	0x3ed89235	0.42299047
143	0xbe26d843	-0.16293435
144	0xbe2317df	-0.15927075
145	0xbe2fe1fd	-0.17176051
146	0x3dd4968d	0.10380278
147	0xbc417074	-0.011806596
148	0x3e4382fa	0.19092932
149	0x3e0b3088	0.13592732
150	0xbece8b2f	-0.40340564
151	0xbe9b9ba9	-0.30392197
152	0xbe985ee6	-0.29759902
153	0xbe1d5f8e	-0.15368482
154	0x3ed1411b	0.40869984
155	0x3ca169dc	0.019703798
156	0x3e670a8e	0.2256262
157	0xbe139e1f	-0.14415787
158	0xbd0b8cf2	-0.034069963
159	0x3c88d7cb	0.01670446
160	0xbe12a527	-0.14320813
161	0xbe1087a8	-0.14114249
162	0x3e464cd4	0.19365245
163	0x3b0ca1b8	0.0021458697
164	0xbe601a53	-0.21885042
165	0xbe60431e	-0.21900603
166	0xbe5618e5	-0.20907934
167	0xbdd810d7	-0.10550087
168	0xbea3bf14	-0.3198172
169	0xbe1cbbfa	-0.15306082
170	0x3e72b5c5	0.23702152
171	0x3e6482b4	0.22315484
172	0xbd32ba9c	-0.043634996
173	0xbe2cb417	-0.16865574
174	0x3e1a10d2	0.15045479
175	0xbd95f3c4	-0.07321885
176	0x3aa04901	0.0012228788
177	0x3ec8b28e	0.39198726
178	0x3edc4987	0.43024847
179	0xbddd790e	-0.10814105
180	0x3e9b57ec	0.30340517
181	0x3e388dbe	0.1802282
182	0xbe5ebb76	-0.21751198
183	0x3e620f6a	0.22076192
184	0x3dba3f21	0.09094072
185	0x3e3993f7	0.1812285
186	0xbf03317e	-0.51247394
187	0xbe77fad8	-0.24216783
188	0x3e613481	0.21992685
189	0x3eb05eca	0.34447318
190	0x3d6ea86b	0.058266085
191	0x3e125ee2	0.14294007
192	0x3e1d7ea0	0.15380335
193	0x3e152505	0.14564903
194	0xbe283a4f	-0.16428493
195	0xbe061849	-0.13095202
196	0x3cc8a34e	0.024491932
197	0x3d4cf72d	0.050040413
198	0xbe5cec92	-0.2157462
199	0x3e06b823	0.1315618
200	0xbea708df	-0.32623956
201	0xbdecb282	-0.11557485
202	0x3ec9d284	0.39418423
203	0x3e3f90b2	0.1870754
204	0x3d4ade6f	0.049528535
205	0x3e8a0b68	0.26961827
206	0x3e2e07e4	0.16995198
207	0xbdb46327	-0.08807974
208	0x3e35c32d	0.17750235
209	0x3cda9969	0.02668448
210	0x3c9fbde7	0.019499732
211	0x3e54c688	0.20778859
212	0x3dc40642	0.09571506
213	0xbe4c2918	-0.19937551
214	0xbe1f9cf2	-0.15587214
215	0xbb44b7d5	-0.00300168
216	0x3d0f27c0	0.034950018
217	0xbdbe3110	-0.09286702
218	0xbbfadb2b	-0.0076555214
219	0x3e25235f	0.16126774
220	0xbe7c45d2	-0.2463601
221	0xbdc435bd	-0.09580562
222	0x3daae094	0.08343616
223	0xbdd50be7	-0.10402661
224	0x3e81bbfa	0.25338727
225	0x3f00dca3	0.50336665
226	0x3e56bafc	0.20969766
227	0xbe131582	-0.14363673
228	0xbe9571e5	-0.29188457
229	0xbe29d5af	-0.1658542
230	0xbe9ff9ac	-0.31245172
231	0xbd59d752	-0.05318386
232	0x3e54c000	0.20776367
233	0xbe4d17f5	-0.2002867
234	0x3eca1009	0.3946536
235	0xbcbabfdd	-0.022796566
236	0x3db96927	0.09053259
237	0xbec6ae22	-0.38804728
238	0x3e553a67	0.2082306
239	0xbe41d36a	-0.18928304
240	0x3e4bf1a0	0.19916391
241	0xbe9bb054	-0.30407965
242	0xbe3386df	-0.17531918
243	0x3b60f07c	0.0034323027
244	0xbcb8797d	-0.022518868
245	0x3d849c40	0.06475115
246	0x3f034bff	0.51287836
247	0x3e3ac7f6	0.18240342
248	0xbe0ed255	-0.13947423
249	0xbe9bd11a	-0.3043297
250	0xbd3ec5d2	-0.046575375
251	0xbe85718d	-0.26063195
252	0xbe943a3a	-0.28950673
253	0x3d30555a	0.043050148
254	0xbdeb1fcd	-0.11480675
255	0x3bda7e91	0.00666792

bias f4 [80]
0	0x3d8937ad	0.067000724
1	0xbe3e0e02	-0.18560031
2	0x3e14393c	0.14474958
3	0x3e0d09ae	0.13773224
4	0xbe7ee2fc	-0.24891275
5	0xbdf2b5a3	-0.11851051
6	0xbbba9c47	-0.0056948992
7	0x3d935dfe	0.07195662
8	0xbe691d91	-0.22765185
9	0x3e714a13	0.23563413
10	0xbdb5df5c	-0.08880493
11	0xbdc77ec3	-0.09740975
12	0x3de7b551	0.1131388
13	0xbdd3fc6d	-0.10350881
14	0xbd1601a7	-0.03662267
15	0x3bd99642	0.0066402266
16	0x3d2bc852	0.041939087
17	0xbe6e3de3	-0.23265795
18	0x3e89ebae	0.26937622
19	0x3e2da32e	0.1695678
20	0x3ae2593a	0.0017269023
21	0x3bb417ef	0.005496017
22	0xbe5c907b	-0.2153949
23	0xbc09747f	-0.008389591
24	0x3df71aca	0.120656565
25	0x3de7961c	0.11307928
26	0xbd87d592	-0.06632532
27	0x3d1378a9	0.036003742
28	0xbc359045	-0.01108176
29	0xbe5beb7a	-0.21476546
30	0xbe63b0e2	-0.22235444
31	0xbe5b6321	-0.21424533
32	0x3e085b52	0.13316086
33	0xbd3d1381	-0.04616118
34	0xbe0b65f6	-0.13613114
35	0xbe9aa926	-0.30207175
36	0xbd975c08	-0.073906004
37	0xbd74ced7	-0.05976757
38	0xbe2d703e	-0.16937348
39	0x3e2f41ad	0.17114897
40	0x3e1dca8a	0.15409294
41	0xbd98749f	-0.07444119
42	0xbe8ee867	-0.27911684
43	0x3eace75a	0.33770257
44	0xbe582eb8	-0.21111572
45	0xbe5624fd	-0.20912547
46	0x3e2e9b98	0.17051542
47	0x3e19a274	0.15003377
48	0xbd986cf4	-0.07442656
49	0xbdee397b	-0.11632057
50	0x3daae59f	0.08344578
51	0x3d2ba8fb	0.0419092
52	0x3e3dc196	0.18530878
53	0xbdfc7c97	-0.12328451
54	0xbc7e4470	-0.015519246
55	0xbe029023	-0.12750296
56	0x3df69663	0.12040403
57	0x3e652e33	0.22380905
58	0xbe5ea0e7	-0.21741067
59	0xbe4e8d38	-0.20171058
60	0xbdc29bc9	-0.0950237
61	0x3e107c7f	0.14109991
62	0x3e5d2a13	0.21598081
63	0x3d861136	0.065462515
64	0xbe69bc99	-0.2282585
65	0x3de50196	0.11181943
66	0x3e882e22	0.26597697
67	0x3a087c05	0.00052064686
68	0x3e08a3d7	0.1334375
69	0xbe823f33	-0.25438842
70	0x3def9e68	0.117001355
71	0x3e2dde0f	0.1697924
72	0x3e52d0c3	0.20587449
73	0x3d495d06	0.04916098
74	0xbe0c4143	-0.1369677
75	0xbc3885b8	-0.01126235
76	0x3ddb304f	0.107025735
77	0x3afaa586	0.0019122816
78	0x3da0a77a	0.078444436
79	0x3dc43e76	0.09582226

weight f4 [200, 80]
0	0x3c489d08	0.01224447
1	0xbd3d62b0	-0.046236694
2	0x3e80d190	0.25159883
3	0x3c23d8aa	0.010000387
4	0x3c68374f	0.014173343
5	0xbdca7488	-0.09885508
6	0xbd8449e5	-0.06459407
7	0x3db63c52	0.08898224
8	0x3e03cb53	0.12870531
9	0xbe07e1ee	-0.13269779
10	0xbcd55a73	-0.026044106
11	0xbd01b5d8	-0.03166756
12	0xbc90c204	-0.017670639
13	0xbde517a6	-0.11186151
14	0xbd97e0d3	-0.07415929
15	0xbe1fb2ef	-0.15595601
16	0xbd8fa61f	-0.07014107
17	0xbd62b7ab	-0.05535094
18	0xbe33745a	-0.17524853
19	0xbd864dce	-0.06557809
20	0x3d6f1e35	0.058378417
21	0x3dafe34e	0.08588277
22	0x3d9d3d42	0.076776996
23	0xbc801a8f	-0.015637664
24	0xbe57277e	-0.21011159
25	0xbcae42f6	-0.021272164
26	0x3da1c0d2	0.07898106
27	0xbbda6738	-0.0066651367
28	0x3d89bcb1	0.06725443
29	0x3da062d9	0.07831354
30	0x3e00083d	0.12503143
31	0x3d596d94	0.053083017
32	0xbd93be1e	-0.07213996
33	0x3d84ea6c	0.06490025
34	0xbdccf0c1	-0.10006858
35	0xbd39ac8d	-0.045330573
36	0x3e1365f0	0.14394355
37	0x3da68d4c	0.08132419
38	0x3c495562	0.012288423
39	0xbcbbd40e	-0.022928264
40	0x3c31c72d	0.01085071
41	0x3c7ef269	0.015560725
42	0xbcd7b8bd	-0.026333207
43	0xbdb126cc	-0.08649978
44	0x3d204da9	0.039136562
45	0xbcbce4ed	-0.02305838
46	0xbda84090	-0.08215439
47	0x3ce4112a	0.027840216
48	0x3dbea56f	0.09308898
49	0xbcf2eab3	-0.029652929
50	0x3d62a99c	0.055337533
51	0xbe7400f0	-0.23828483
52	0xbd18dffd	-0.037322987
53	0xbd128e78	-0.0357804
54	0xbd8fbffa	-0.070190385
55	0xbcd9fb3a	-0.026609052
56	0xbdb6c0da	-0.08923502
57	0xbdb3b9cc	-0.08775672
58	0x3d7ee1e6	0.062227152
59	0x3d178072	0.03698773
60	0x3c2f6ace	0.010706617
61	0x3d0460a5	0.03231873
62	0xbd4252d2	-0.047442265
63	0xbde7cc74	-0.11318293
64	0x3db5be3f	0.08874177
65	0xbc84f605	-0.016230593
66	0xbd43c4bf	-0.047795054
67	0xbe0bbca9	-0.13646187
68	0xbdd3d15a	-0.10342665
69	0x3c2c0d1c	0.010501172
70	0xbd838912	-0.064226285
71	0x3dd59271	0.10428322
72	0xbdc98a53	-0.098408364
73	0xbe15ca6b	-0.14627998
74	0x3d8fb3c7	0.07016712
75	0xbe332c8e	-0.17497465
76	0xbe2d6520	-0.16933107
77	0x3d18fb98	0.037349313
78	0xbcc1e09e	-0.023666676
79	0xbe00a6de	-0.12563655
80	0xbe03ff0e	-0.12890264
81	0x3e015b1b	0.1263241
82	0xbe2c345f	-0.16816853
83	0x3aeb4d80	0.0017952174
84	0xbcc2b114	-0.023766078
85	0xbdc73361	-0.097265966
86	0xbd4d3cc0	-0.050106764
87	0xbdd31ccd	-0.10308228
88	0xbc6e1938	-0.01453238
89	0x3df27694	0.11839023
90	0x3dd3a88f	0.103348844
91	0x3da45224	0.080234796
92	0x3e5f010a	0.2177774
93	0xbdcda8ea	-0.100419834
94	0x3e176004	0.14782721
95	0x3e45469c	0.19265217
96	0x3d7e5b8d	0.06209903
97	0x3d4e9752	0.05043728
98	0x3d583f94	0.052795008
99	0xbc8fb77b	-0.017543545
100	0xbce26ef7	-0.027640803
101	0x3e0b6740	0.13613605
102	0x3dc30f78	0.09524435
103	0x3d5cd949	0.053918157
104	0x3e1f3246	0.15546522
105	0xbde9056b	-0.113779865
106	0xbdbc009f	-0.09179806
107	0xbe0b22fc	-0.13587564
108	0xbd4a3e84	-0.049376026
109	0xbdfa3006	-0.12216191
110	0xbda3fddf	-0.080074064
111	0xbd88e1fa	-0.066837266
112	0xbda969a5	-0.08272103
113	0x3d549b97	0.051906195
114	0x3bf98352	0.0076145316
115	0xbd158729	-0.036505852
116	0xbde2a7f7	-0.11067193
117	0x391a667f	0.00014724767
118	0x3d01eaff	0.03171825
119	0x3d14458e	0.036199145
120	0x3cec373e	0.028834935
121	0x3d71539c	0.058917627
122	0x3d3385d7	0.04382881
123	0xbc8faf37	-0.017539604
124	0x3ce5af32	0.028037641
125	0xbdf03f55	-0.117308296
126	0xbe666157	-0.2249807
127	0xbc6d5196	-0.014484784
128	0x3d879491	0.06620134
129	0xbdb31718	-0.08744639
130	0xbc9021f7	-0.01759432
131	0x3e20db78	0.1570872
132	0x3d1ea09f	0.0387274
133	0xbcde1a6a	-0.027112205
134	0x3da67c0f	0.08129131
135	0x3e6e5316	0.23273882
136	0xbd2c4a20	-0.04206288
137	0xbdc76781	-0.09736539
138	0xbcf44f84	-0.029823072
139	0x3dc80592	0.097666875
140	0xbdbcb9c2	-0.09215118
141	0x3d8d50c7	0.06900173
142	0xbd8fcb1a	-0.070211604
143	0x3dcf6c2f	0.10128056
144	0xbe05bd57	-0.13060509
145	0x3ac1e0ff	0.0014791786
146	0x3d30b7dd	0.043144096
147	0xbdc89dbb	-0.0979571
148	0xbd5e23d2	-0.05423338
149	0xbc9504a7	-0.018190695
150	0xbc9614af	-0.01832041
151	0x3dd902a6	0.10596208
152	0xbdaa6d38	-0.08321613
153	0xbe30ba9f	-0.1725869
154	0x3dbd0538	0.09229511
155	0x3e1355dd	0.14388223
156	0xbd5aa579	-0.053380463
157	0xbbc58b05	-0.0060285353
158	0x3d88d623	0.06681468
159	0x3de4ffe6	0.11181621
160	0xbac1252b	-0.0014735808
161	0x3d9f03eb	0.07764419
162	0x3c1742bf	0.009232222
163	0x3d7e987c	0.06215714
164	0xbc53dc6e	-0.0129309725
165	0x3d821a4d	0.06352673
166	0x3c462a3d	0.012095031
167	0x3cca94fc	0.024729244
168	0x3cee9150	0.029122025
169	0x3e0e95e9	0.13924374
170	0xbcc55c12	-0.024091754
171	0x3cbf9ff4	0.023391701
172	0x3d499e79	0.049223397
173	0x3d94e7d6	0.07270782
174	0x3d37a24f	0.044832524
175	0xbd005e0b	-0.031339686
176	0xbcc5eb3f	-0.024160026
177	0x3da39b90	0.079886556
178	0xbd334614	-0.043768004
179	0xbd2e8fcc	-0.042617604
180	0xbbe98a44	-0.0071270783
181	0xbd9b845b	-0.07593604
182	0x3da0fca7	0.078606896
183	0xbbc6624d	-0.006054199
184	0x3ddec40c	0.10877237
185	0xbd0c5101	-0.03425694
186	0xbdb12216	-0.086490795
187	0xbb0e1902	-0.0021682386
188	0x3df537ae	0.11973511
189	0x3cd50ab4	0.02600608
190	0x3c1b206b	0.009468178
191	0x3da405f1	0.08008946
192	0xbd99beb4	-0.07507077
193	0x3d8cf8e5	0.0688341
194	0xbdfe0549	-0.12403352
195	0x3dc4d439	0.09610791
196	0x3d3b3204	0.045701995
197	0xbdb4f469	-0.0883568
198	0xbd2300ef	-0.039795812
199	0xbdb024c3	-0.08600762
200	0x3d869619	0.065715976
201	0xbd84fe03	-0.064937614
202	0xbdb793fc	-0.08963773
203	0xbd1e7d85	-0.038693924
204	0x3aa07aa6	0.0012243583
205	0xbd612f91	-0.054977003
206	0x3c10f18d	0.008846653
207	0x3d7f9f37	0.0624077
208	0x3da5e080	0.080994606
209	0xbda04934	-0.078264624
210	0x3bc4681e	0.005993857
211	0xbdb47ad2	-0.088124886
212	0x3b026f3e	0.0019902731
213	0x3e17e778	0.14834392
214	0x39da9dab	0.00041697672
215	0xbc87a613	-0.016558683
216	0xbe011a33	-0.1260765
217	0xbdaa212a	-0.08307107
218	0x3d9e32a3	0.07724502
219	0x3db08cb7	0.08620589
220	0x3d274b0b	0.04084305
221	0x3db02f7a	0.086028054
222	0xbde0e2b2	-0.10980739
223	0xbba91a6a	-0.0051606195
224	0xbb801fac	-0.0039100256
225	0x3d498273	0.04919667
226	0x3c8385fe	0.016055103
227	0x3db3f7e9	0.087875195
228	0xbdd01830	-0.101608634
229	0xbb14c317	-0.002269929
230	0xbe21c18a	-0.15796486
231	0xbc758dd2	-0.014987426
232	0xbc821884	-0.01588083
233	0xbd2e82ad	-0.04260509
234	0xbcd513b2	-0.026010368
235	0x3cbfcd8d	0.023413444
236	0x3da353e0	0.07974982
237	0xbd0cf9c9	-0.0344179
238	0x3e13650f	0.1439402
239	0xbd282c00	-0.041057587
240	0x3c0d8ae5	0.008639072
241	0xbc63ce79	-0.013904207
242	0x3d05830c	0.03259568
243	0xbcbe9ea4	-0.023269005
244	0x3ac73145	0.0015197179
245	0x3deb2eeb	0.11483558
246	0x3de7fec3	0.11327889
247	0x3db735e0	0.08945823
248	0x3e3191d2	0.17340782
249	0x3dcb5787	0.09928804
250	0xbd376742	-0.04477621
251	0x3d7c0b28	0.061534077
252	0x3cc36e5e	0.023856338
253	0xbdbc9ed9	-0.09209985
254	0xbca5d4d9	-0.020243095
255	0xbe09c0d7	-0.13452469

bias f4 [200]
0	0x39cb7977	0.00038809676
1	0xbd68b0ec	-0.05680935
2	0x3c98b489	0.018640773
3	0xbdaa112f	-0.08304059
4	0x3c2f7dff	0.010711192
5	0x3d4c97ac	0.049949333
6	0xbda72f39	-0.08163304
7	0xbd45ebbc	-0.048320517
8	0xbb032cc7	-0.0020015703
9	0x3d9f0c3d	0.07766006
10	0xbddd26ae	-0.10798393
11	0x3d37188e	0.04470115
12	0x3dc39c7c	0.095513314
13	0xbd85b1a1	-0.06528021
14	0x3d2759ad	0.040857006
15	0x3dda5ed1	0.10662616
16	0x3dafa92d	0.085771896
17	0xbd65cf24	-0.056105748
18	0x3dad90f2	0.08474912
19	0x3d17748f	0.036976393
20	0x3cc65732	0.0242115
21	0xbc628eb7	-0.013827971
22	0x3d749cf1	0.059719983
23	0x3daa40f6	0.083131716
24	0x3dc62211	0.096744664
25	0x3c09bf41	0.008407415
26	0xbd9b7425	-0.07590512
27	0x3ca9d52b	0.02073153
28	0xbdcf2845	-0.10115103
29	0xbc4b4b24	-0.012408052
30	0x3d8856db	0.06657191
31	0x3c7876c5	0.015165036
32	0x3d119829	0.0355455
33	0xbdc34c1b	-0.09536
34	0x3d4dff86	0.050292514
35	0x3c19ae5a	0.009379948
36	0xbbb0b7dd	-0.005393012
37	0xbd8b4de5	-0.068019666
38	0x3c5afce3	0.013365957
39	0xbcacd32b	-0.021096786
40	0xbd78c599	-0.06073532
41	0xbd2ac450	-0.041691124
42	0xbd4fa801	-0.05069733
43	0x3d9f8bc5	0.07790331
44	0x3dbac414	0.0911943
45	0x3db0ac87	0.08626657
46	0x3dbb697b	0.09150978
47	0x3c181bce	0.009283973
48	0x3dbc56a2	0.091962114
49	0xbd2263e7	-0.039646056
50	0xbca81eb4	-0.020522453
51	0xbd8813de	-0.06644414
52	0x3cf2ce6d	0.029639447
53	0xbb8f4063	-0.004371689
54	0xbd62010e	-0.055176787
55	0xbb1299dc	-0.002236954
56	0xbce94b1d	-0.0284782
57	0x3da90604	0.082531005
58	0x3d9b61f9	0.07587046
59	0x3d9104b8	0.07080978
60	0xbda9a413	-0.08283248
61	0xbc934eb7	-0.01798187
62	0x3dbe5916	0.092943355
63	0x3d4359cf	0.04769307
64	0xbc27530c	-0.010212671
65	0x3d83ed32	0.06441726
66	0x3dc737ca	0.09727438
67	0xbd40a739	-0.047034476
68	0x3c860bbb	0.016363015
69	0x3d1db5e2	0.038503535
70	0xbddad76b	-0.10685619
71	0xbdb17158	-0.08664197
72	0xbd65d0c8	-0.056107312
73	0xbdb90b19	-0.0903532
74	0x3d9e22ea	0.07721503
75	0x3da6031c	0.08106062
76	0x3deae795	0.11469952
77	0x3c8d5cc0	0.01725614
78	0xbdc3dae1	-0.09563232
79	0xbd06e183	-0.03292991
80	0x3db86152	0.090029374
81	0x3d6e52ec	0.05818455
82	0x3c97ea74	0.018544413
83	0x3d64b6ce	0.0558384
84	0x3dd53594	0.1041061
85	0xbc609ce5	-0.013709282
86	0xbc82f753	-0.015987074
87	0xbd6edaf7	-0.05831429
88	0xbce2bbee	-0.027677502
89	0xbd90394c	-0.070421785
90	0x3dbc1f62	0.09185673
91	0xbd476f50	-0.04869014
92	0x3d91f0b3	0.07125988
93	0x3d67896e	0.056527548
94	0x3dac31bb	0.08407923
95	0x3d950416	0.0727617
96	0xbdccf78a	-0.10008152
97	0x3b09fb53	0.0021054342
98	0x3d6fd3c3	0.05855156
99	0xbda9d36d	-0.082922794
100	0x3db65c29	0.08904297
101	0x3d41cb4f	0.04731303
102	0xbd03473c	-0.032050356
103	0xbd3ad07d	-0.045608986
104	0x3ce8cdf8	0.028418526
105	0x3d1a73cf	0.0377081
106	0xbd59cd19	-0.053174112
107	0xbcbbc887	-0.022922767
108	0x3dc2897b	0.094988786
109	0xbdde7141	-0.10861445
110	0x3db9f2df	0.09079527
111	0x3d968dc5	0.07351259
112	0xbda990ff	-0.08279609
113	0xbd2f91c3	-0.04286362
114	0xbd899fcc	-0.06719932
115	0x3d9bb65a	0.0760314
116	0x3c00104e	0.007816387
117	0x3ce91676	0.028453093
118	0xbb8f37db	-0.004370672
119	0xbd4f2ddc	-0.050580844
120	0xbceede2c	-0.029158674
121	0xbd9d55e7	-0.076824
122	0x3dab3f92	0.083617344
123	0x3b893281	0.0041869287
124	0x3db1f659	0.08689565
125	0x3d453964	0.048150435
126	0xbc7c0ad4	-0.015383441
127	0x3cf1aef7	0.029502375
128	0x3cf923ce	0.03041258
129	0x3d44a87f	0.048012253
130	0xbd9f929e	-0.07791637
131	0xbd41d4e3	-0.047322165
132	0xbdd3f596	-0.10349576
133	0xbdbb51fb	-0.09146496
134	0x3da89442	0.08231403
135	0xbd7e7b34	-0.062129214
136	0x3db2862c	0.087169975
137	0xbdbbe6b4	-0.091748625
138	0x3d8261a7	0.06366282
139	0xbd63c2d2	-0.055605717
140	0x3d87229a	0.065983966
141	0xbc8cbe27	-0.017180515
142	0xbd546661	-0.05185545
143	0x3da90a51	0.08253921
144	0x3d67a6f0	0.05655569
145	0xbdc180e3	-0.09448411
146	0xbd97fcdb	-0.07421275
147	0x3dd23460	0.10263896
148	0xbdf7dfc8	-0.1210323
149	0x3dea905b	0.11453315
150	0xbcec3d05	-0.02883769
151	0xbd5c8e15	-0.053846437
152	0x3ce365cb	0.0277585
153	0x3d43a2bf	0.04776263
154	0x3d8bfb1f	0.06835007
155	0x3d53a713	0.051673006
156	0x3d969729	0.0735305
157	0x3d3363d6	0.043796383
158	0x3d2421fc	0.040071473
159	0xbd3e1c71	-0.046413843
160	0x3da8d99b	0.0824463
161	0x3d72b4e4	0.059254542
162	0xbbabfd60	-0.0052487105
163	0x3c000e61	0.007815928
164	0xbdbeb3ea	-0.0931166
165	0xbcd85ad4	-0.026410498
166	0x3d8a0a97	0.06740301
167	0x3cbc5c56	0.022993248
168	0x3d7d1b23	0.061793458
169	0x3d6993c6	0.057025693
170	0xbd8db126	-0.06918554
171	0xbe022ff1	-0.127136
172	0x3d1723eb	0.03689949
173	0xbd418f67	-0.0472559
174	0x3d618caf	0.055065807
175	0xbd47b57c	-0.04875706
176	0xbcb2e76d	-0.021838868
177	0x3dacc52a	0.084360436
178	0xbd92db02	-0.07170679
179	0xbd7532eb	-0.059863012
180	0x3d50567e	0.050863735
181	0xbccd20f8	-0.025040135
182	0xbdd9dd49	-0.1063791
183	0x3c73eaa3	0.014887485
184	0x3d8c810a	0.0686055
185	0xbda846cc	-0.082166284
186	0x3d8dcbbf	0.06923627
187	0xbd10adba	-0.03532193
188	0x3c180942	0.009279551
189	0x3c14753c	0.009061154
190	0xbce406f0	-0.02783534
191	0xbd737618	-0.059438795
192	0xbda35258	-0.0797469
193	0x3dc3a664	0.09553221
194	0xbd16b25b	-0.036791187
195	0xbd8331cc	-0.064059824
196	0x3d85cb3f	0.06532907
197	0x3c32cd1d	0.010913161
198	0x3d931d70	0.07183349
199	0x3d4b0340	0.049563646

weight f4 [80, 200]
0	0xbb7d5058	-0.0038652625
1	0x3d11744a	0.035511293
2	0x3d92b318	0.07163066
3	0x3d2c1e02	0.042020805
4	0xbd66b129	-0.056321297
5	0xbb6d7675	-0.0036233936
6	0x3da2ef95	0.07955853
7	0xbd249116	-0.040177427
8	0x3d821724	0.0635207
9	0x3d392e1b	0.045209985
10	0x3c8da3ad	0.01728996
11	0x3d99d7e9	0.07511885
12	0xbbb4e13f	-0.0055200155
13	0x3b88f3d4	0.004179457
14	0x3cfa474c	0.030551575
15	0x3bf34ed4	0.0074251685
16	0x3c7c1c7f	0.015387653
17	0x3c25a7ae	0.010110779
18	0x3ce2bc1b	0.027677586
19	0xbd43c02a	-0.047790684
20	0xbd5cb5f2	-0.053884454
21	0xbdbbc6f9	-0.091688104
22	0xbcdd87e1	-0.027042331
23	0x3c9b1b2d	0.018933857
24	0x3c8cfdb0	0.017210811
25	0x3d3c7dc9	0.046018396
26	0x3da1b3a7	0.07895594
27	0xbd4a4a10	-0.049387038
28	0xbd37855f	-0.044804927
29	0x3d21a37a	0.039462544
30	0xbdbf7864	-0.093491346
31	0xbcb6e94b	-0.02232804
32	0x3d76473b	0.060126524
33	0xbbd7b964	-0.0065833796
34	0x3d494d43	0.04914595
35	0xbcb7b3c0	-0.022424579
36	0x3cad39e5	0.02114577
37	0xba9a33f2	-0.0011764748
38	0x3d5d783a	0.054069735
39	0xbdbc9e64	-0.09209898
40	0xbd90f3fe	-0.07077788
41	0xbc9d73b7	-0.019220216
42	0x3d17d30f	0.037066516
43	0x3b8feb29	0.004392047
44	0x3c43459e	0.0119184535
45	0x3bce38dd	0.0062933997
46	0x3cd88d14	0.026434459
47	0x3d42b512	0.047535963
48	0xbda33c92	-0.07970537
49	0xbcc9b0e1	-0.024620475
50	0xbd13d022	-0.036087163
51	0x3d5cd82e	0.053917103
52	0x3ccfa5ac	0.025347553
53	0x3d677bbf	0.056514498
54	0xbb8526ba	-0.0040634545
55	0x3d94462b	0.07239946
56	0x3bb08c3b	0.0053878105
57	0xbd3be08d	-0.045868445
58	0x3d8091c4	0.062778026
59	0xbc4ae7f4	-0.0123844035
60	0x3cf3c7d0	0.029758364
61	0xbd3ba889	-0.045815025
62	0xbe01adbb	-0.12663929
63	0xbd7e5b90	-0.06209904
64	0xbd943364	-0.072363645
65	0x3d96c02d	0.07360873
66	0x3c5a9563	0.013341281
67	0xbc43f5c5	-0.0119604515
68	0xbd46aade	-0.048502795
69	0xbd90ebcb	-0.07076224
70	0xbd231027	-0.039810326
71	0x3d14a897	0.036293592
72	0xbd48c78a	-0.04901842
73	0x3d02b6a7	0.031912472
74	0xbaffc98f	-0.0019515025
75	0x3d66d23f	0.05635285
76	0xbd31f86c	-0.043449804
77	0x3ba838ab	0.0051337085
78	0x3d646d3c	0.055768237
79	0x3cc45a9f	0.023968993
80	0x3d7bd621	0.061483506
81	0x3dc0c201	0.09412003
82	0xbc6e8fcc	-0.014560651
83	0x3d564600	0.05231285
84	0x3d162204	0.036653534
85	0x3b8325c8	0.0040023066
86	0x3d3f85b4	0.04675837
87	0x3d37512f	0.044755157
88	0xbcacd70e	-0.02109864
89	0x3da1818b	0.078860365
90	0x3d45ef6e	0.04832404
91	0x3cd7e105	0.026352415
92	0xbc9f850f	-0.019472627
93	0x3d35a97d	0.04435109
94	0xbcf46b68	-0.029836372
95	0x3b96e073	0.004604393
96	0xbd433f1c	-0.047667608
97	0xbc95e5e6	-0.0182981
98	0x3d3f0101	0.046631817
99	0xbce22aac	-0.027608238
100	0x3db07930	0.08616865
101	0x3da4f9cd	0.08055458
102	0xbc8bd6b9	-0.017070161
103	0x3d83c42a	0.064339
104	0xbe0a6494	-0.1351493
105	0xbc5e13af	-0.013554498
106	0xbd62c49a	-0.055363275
107	0x3d1aa489	0.03775457
108	0xbbb924f4	-0.005650157
109	0x3c098dd8	0.008395635
110	0x3ccdc0b9	0.025116311
111	0xbcf0c724	-0.029391833
112	0xbdc748ee	-0.09730707
113	0x3d25603e	0.040374987
114	0x3d6078d7	0.05480274
115	0xbd582635	-0.052770812
116	0x3db173ea	0.08664687
117	0x3c0f45d3	0.008744675
118	0x3cff0202	0.031128887
119	0xbd7a9b36	-0.061183177
120	0x3d10ae3a	0.035322405
121	0x3d558f63	0.052138697
122	0xbc3e9b50	-0.011633709
123	0xbca50f80	-0.020148993
124	0x3c118c78	0.008883588
125	0x3cfc7b27	0.030820442
126	0x3d9b7cf6	0.07592194
127	0xbcefbe67	-0.029265596
128	0xbd15e271	-0.036592904
129	0xbd12b47a	-0.035816647
130	0x3c91980e	0.0177727
131	0x3cfa6589	0.030565994
132	0x3d25f097	0.040512647
133	0x3d4f45b4	0.050603583
134	0x3d5a0101	0.053223614
135	0xbd0e9c38	-0.03481695
136	0xbd3d0544	-0.0461476
137	0xbcc10953	-0.023564016
138	0xbd3538a3	-0.044243466
139	0xbd386ead	-0.045027424
140	0x3d03aeb9	0.03214905
141	0x3d8e1035	0.06936685
142	0xbb88047a	-0.0041509243
143	0xbd86206e	-0.06549154
144	0xbd771397	-0.060321417
145	0xbd9fbd54	-0.07799783
146	0xbbe444d9	-0.006966215
147	0x3a394ed4	0.0007068936
148	0x3cc441e2	0.023957197
149	0xbda58941	-0.0808282
150	0x3d67544c	0.056476876
151	0x3d391901	0.04518986
152	0x3cb345d1	0.021883877
153	0xbb550e40	-0.0032509714
154	0x3ba0b91c	0.0049048793
155	0xbd5666f7	-0.05234429
156	0xbdd232af	-0.102635734
157	0xbcfc36bf	-0.030787824
158	0xbd514af6	-0.05109688
159	0x3d27612e	0.040864162
160	0x3c0d8d2d	0.008639616
161	0x3d425aad	0.047449756
162	0x3db239f9	0.08702464
163	0xbd2e694e	-0.042580895
164	0x3db574fd	0.08860204
165	0xbdb22e53	-0.08700242
166	0xbc565a72	-0.013083087
167	0xbc602b35	-0.013682176
168	0x3da35533	0.07975235
169	0xbd5a3c2b	-0.053280037
170	0xbcdfd02d	-0.027320946
171	0xbceecc00	-0.02915001
172	0x3d35eca8	0.044415146
173	0x3c854d84	0.016272314
174	0xbcc57efc	-0.024108402
175	0x3dca6bae	0.098838195
176	0x3d9aa4b6	0.07550947
177	0x3d35594d	0.044274617
178	0x3c704e9a	0.014667178
179	0xbde5020e	-0.111820325
180	0xbd8844d4	-0.06653753
181	0x3ce71df5	0.028212527
182	0x3c7145c6	0.014726108
183	0xbd2740b5	-0.040833194
184	0x3ca84b95	0.020543853
185	0x3bd420ff	0.00647366
186	0x3d783e93	0.06060655
187	0xbc1d6331	-0.009606169
188	0xbd10a4a6	-0.03531327
189	0xbd670763	-0.05640353
190	0xbcc7a9b5	-0.024372915
191	0xbd441d5a	-0.047879554
192	0x3d9c9b90	0.07646859
193	0x3d26ecaf	0.040753063
194	0x3d2970f0	0.04136747
195	0xbd3d9628	-0.04628578
196	0x3d9525ba	0.072825864
197	0xbc7038ac	-0.014661949
198	0xbccacaad	-0.024754846
199	0x3d38ee91	0.04514939
200	0xbdb3f459	-0.0878684
201	0xbd4e6187	-0.050385978
202	0x3c3439ba	0.011000091
203	0xbe5e6846	-0.21719465
204	0xbd1e1b49	-0.03860024
205	0xbc64e3bf	-0.0139703145
206	0xbd0d7263	-0.034532916
207	0xbd2a8b6d	-0.041636873
208	0x3bda16a2	0.00665553
209	0x3c44a2d8	0.012001716
210	0x3baf2973	0.0053455173
211	0x3c91f3e1	0.017816486
212	0xbcd0cc9d	-0.025488192
213	0x3d7f8938	0.06238672
214	0x3d360d88	0.0444465
215	0xbd51f958	-0.051263183
216	0xbca51a17	-0.020154042
217	0x3c8325ca	0.01600923
218	0xbcb0c9fa	-0.021580685
219	0xbd26ad09	-0.040692363
220	0xbd66178f	-0.05617481
221	0xbd8bd21b	-0.06827184
222	0x3b8b16cc	0.004244661
223	0x3b7a9cae	0.003824036
224	0x3d6afc99	0.057369802
225	0xbd9f9957	-0.07792919
226	0xbde192a2	-0.11014296
227	0xbc179e2c	-0.00925402
228	0xbd02881a	-0.031868078
229	0xbd1a4b8e	-0.03766971
230	0x3c55bc3a	0.013045365
231	0x3d900b2c	0.07033381
232	0xbd63e7c4	-0.05564095
233	0x3c869946	0.016430508
234	0xbd755c6e	-0.0599026
235	0x3d6599f6	0.05605503
236	0xbd85c217	-0.0653116
237	0x3d42dc3e	0.04757332
238	0x3d2f1b6a	0.042750753
239	0xbd6a76bc	-0.05724214
240	0xbda5bfce	-0.080932245
241	0x3d176752	0.03696377
242	0x3b1c01fe	0.0023804898
243	0xbe100da9	-0.14067711
244	0xbd8998a5	-0.06718568
245	0x3ca62bd5	0.020284573
246	0xbc79894b	-0.015230487
247	0x3b39a92f	0.00283296
248	0x3d75e1d6	0.060029827
249	0xbc8e040c	-0.017335914
250	0x3cfea51a	0.031084586
251	0x3c9ec15e	0.019379314
252	0xbd54580a	-0.051841773
253	0x3d0aac3c	0.03385566
254	0xbcd0e800	-0.025501251
255	0x3d44cc46	0.048046373

bias f4 [80]
0	0xbd9da6a0	-0.07697797
1	0xbd15a375	-0.036532838
2	0x3d70aba9	0.058757458
3	0xbd78173c	-0.060569033
4	0x3da3c10c	0.07995805
5	0x3d83353d	0.06406639
6	0xbd27308a	-0.040817775
7	0x3a88f7f3	0.0010449871
8	0xbcb75e2d	-0.022383774
9	0x3dfe273e	0.124098286
10	0xbd179ee0	-0.03701675
11	0x3d1ecd59	0.038770054
12	0x3d8fe130	0.07025373
13	0xbbeabf7c	-0.00716394
14	0x3c805a1b	0.015667966
15	0xbdbd81fe	-0.0925331
16	0xbc98f9d4	-0.018673815
17	0xbd912ae9	-0.070882626
18	0xbd1953de	-0.037433498
19	0x3d8cf46b	0.068825565
20	0x3d471b4d	0.04861002
21	0x3d8b6c2c	0.068077415
22	0xbd7d6cc3	-0.0618713
23	0xbce2cc87	-0.027685417
24	0xbcc64d38	-0.024206743
25	0x3d10d4ab	0.035359066
26	0x3d4b79b2	0.049676605
27	0xbd69d72d	-0.057089973
28	0xbce88230	-0.02838239
29	0xbc97c571	-0.018526765
30	0xbaaeba3e	-0.0013330651
31	0xbd6d52a7	-0.05794015
32	0xbd153b6e	-0.03643363
33	0x3d206943	0.039162885
34	0xbcc6aee2	-0.024253312
35	0xbcbd2408	-0.02308847
36	0xbd8ffa55	-0.07030169
37	0x3cf5378d	0.029933715
38	0x3bcd37c3	0.006262751
39	0xbd59c3a4	-0.053165093
40	0xbcbb08e6	-0.022831392
41	0x3a9a7f7a	0.0011787259
42	0xbd4b6487	-0.049656417
43	0xbc7bb3a4	-0.015362654
44	0xbd8c9031	-0.0686344
45	0xbd4d3750	-0.05010158
46	0xbd2b9646	-0.04189136
47	0x3c9955d4	0.018717684
48	0x3d273281	0.04081965
49	0x3cbf937b	0.023385754
50	0x3d1555f8	0.03645894
51	0x3c2bee4b	0.010493825
52	0x3d10d523	0.035359513
53	0x3d96e9b5	0.07368795
54	0xbd941ff1	-0.07232655
55	0xbbd284ea	-0.006424536
56	0xbd2ecfc6	-0.042678617
57	0x3d302aa7	0.043009426
58	0x3b40fbb1	0.0029446895
59	0x3d212d4c	0.03934984
60	0x3c9b688e	0.018970754
61	0x3d1a7374	0.03770776
62	0xbc50eca3	-0.012751731
63	0xbd8bee7e	-0.06832598
64	0xbca225d9	-0.019793438
65	0xbd8fa5be	-0.07014035
66	0x3c4984d7	0.012299738
67	0x3cc5e62e	0.02415761
68	0xbc8b282d	-0.01698693
69	0x3d2379ab	0.039910953
70	0xbd2aaf1d	-0.041670907
71	0x3cbbef66	0.022941303
72	0x3ccecbfa	0.025243748
73	0xbd3027c8	-0.04300669
74	0x3c8820e7	0.016617252
75	0xbd20d928	-0.039269596
76	0x3cda24bb	0.026628843
77	0xbd5c43d5	-0.053775627
78	0xbc5becf2	-0.013423191
79	0xbd505ec9	-0.050871644

weight f4 [200, 80]
0	0xbc84869b	-0.016177466
1	0x3bbd7ead	0.005782923
2	0xbd4fbe4e	-0.050718598
3	0xbd8ae013	-0.0678102
4	0x3d55314b	0.052048963
5	0xbdbf5e20	-0.09344125
6	0xbacf0972	-0.0015795662
7	0x3cf831ba	0.030297149
8	0xbda8e077	-0.08245938
9	0x3d8cc987	0.06874376
10	0x3da03db2	0.078242674
11	0x3d37568f	0.044760283
12	0xbb3b7bf6	-0.0028607822
13	0x3dba43ce	0.09094964
14	0x3dae0176	0.084963724
15	0x3d5a01e9	0.053224478
16	0xbdbb95f1	-0.091594584
17	0x3d92a2c0	0.07159948
18	0xbcf2af15	-0.029624501
19	0x3d8aad93	0.06771388
20	0x3d27bf6c	0.04095404
21	0xbd70b693	-0.058767866
22	0xbddef394	-0.108863026
23	0x3d7b973b	0.06142352
24	0x3d3bcc0e	0.0458489
25	0xbd8e316e	-0.06943022
26	0x3de1edf9	0.11031718
27	0x3954e94d	0.00020304807
28	0x3cbc8379	0.02301191
29	0xbb5e5626	-0.003392586
30	0x3d00bd58	0.031430572
31	0xbd7a5d38	-0.061124057
32	0xb8e1c69f	-0.00010765832
33	0xbdb1635f	-0.08661532
34	0xbdf40623	-0.11915233
35	0x3ceef156	0.029167812
36	0x3d9ac717	0.075575046
37	0x3d0b713a	0.03404353
38	0xbdc89f33	-0.0979599
39	0xbaa75465	-0.001276624
40	0x3d295fbb	0.04135106
41	0x3c6154c1	0.013753117
42	0xbd8239fc	-0.06358716
43	0x3dfc48a8	0.123185456
44	0xbd23a416	-0.039951406
45	0x3dd91648	0.10599953
46	0xbd8c97c9	-0.06864888
47	0x3d52c1d4	0.05145438
48	0x3e0a6a9e	0.13517234
49	0x3d892a4a	0.06697519
50	0xbda0007e	-0.07812594
51	0xbdab643a	-0.08368726
52	0x3dd2f5d1	0.10300792
53	0x3d857b25	0.065176286
54	0xbd1d69a3	-0.03843082
55	0x3d974367	0.07385903
56	0xbd8cd9c0	-0.0687747
57	0x3d2be5bc	0.04196714
58	0x3d336204	0.043794647
59	0x3db68aed	0.08913217
60	0xbdc78dbc	-0.097438306
61	0xbd0d20f9	-0.034455273
62	0xbde024b5	-0.10944501
63	0xbc9e7c75	-0.019346455
64	0xbd14477f	-0.036200996
65	0x3da5ac9e	0.08089565
66	0xbd533770	-0.05156654
67	0xbd944557	-0.07239788
68	0xbd826870	-0.06367576
69	0xbd5ef12b	-0.054429214
70	0xbd8b07f4	-0.06788626
71	0xbc3999a0	-0.011328131
72	0x3ab27dc1	0.00136178
73	0x3d3552b3	0.04426832
74	0xbce5c97c	-0.028050177
75	0xbdba1a75	-0.090870775
76	0xbdcc963a	-0.09989591
77	0xbd83c660	-0.064343214
78	0x3db87e6c	0.09008488
79	0xbda7e5fb	-0.08198162
80	0xbe4313cb	-0.19050519
81	0x3d666a8c	0.056253955
82	0x3da13d2e	0.07872997
83	0xbc252a32	-0.010080861
84	0x3d435444	0.047687784
85	0xbdebcd4e	-0.11513768
86	0xbdb61525	-0.08890752
87	0xbd8f8a79	-0.070088334
88	0xbd74d733	-0.059775542
89	0x3b7a186b	0.0038161527
90	0x3d1909b4	0.03736277
91	0xbd995893	-0.07487597
92	0xbd82074b	-0.06349047
93	0x3d9885f4	0.074474245
94	0x3df12f4b	0.117765985
95	0xbc9c1bb6	-0.019056182
96	0xbdc191f3	-0.09451666
97	0x3c683ba8	0.014174379
98	0x3b746ab8	0.0037295055
99	0xbcde4f6f	-0.027137486
100	0xbcc274ec	-0.023737393
101	0x3d5d63eb	0.054050367
102	0xbd7ad6c1	-0.06123996
103	0x3d05ec6e	0.03269618
104	0xbbaf22bb	-0.0053447164
105	0x3d5a1794	0.053245142
106	0xbc299dab	-0.010352532
107	0xbda19971	-0.07890595
108	0x3d5c6452	0.05380661
109	0x3ab1c88f	0.00135638
110	0xbd1ac1be	-0.037782423
111	0x3cea9e65	0.028639982
112	0xbd8a4699	-0.06751747
113	0x3d121864	0.035667792
114	0xbc8b39c6	-0.016995322
115	0x3d82ae59	0.063809104
116	0x3da2a1e1	0.07941032
117	0xbdf55e18	-0.119808376
118	0x3e18a279	0.14905728
119	0x3c731c0f	0.014838233
120	0xbda21dc2	-0.07915832
121	0xbc9a3a63	-0.01882667
122	0x3d87e302	0.06635095
123	0xbda4667d	-0.080273606
124	0x3cd785fd	0.026309008
125	0xbd921cf9	-0.07134432
126	0xbd8f9431	-0.07010687
127	0xbce960e6	-0.028488588
128	0x3d14bb64	0.036311522
129	0xbdc5eb83	-0.09664061
130	0x3cccaff4	0.024986245
131	0xbbdcb4ea	-0.006735434
132	0x3b812023	0.0039405986
133	0xbd9dcb30	-0.077047706
134	0x3ce3533c	0.02774965
135	0xbdec9303	-0.11551478
136	0x3c13c058	0.009018026
137	0xbe0a4c4e	-0.1350567
138	0xbe0da92e	-0.13834068
139	0x3dbc782d	0.09202609
140	0x3d57348a	0.05254034
141	0x3cfb6e7e	0.030692335
142	0x3dd1621d	0.10223792
143	0xbdd6504d	-0.10464535
144	0x3d68b753	0.056815457
145	0x3cbf2c82	0.023336653
146	0x3dc165ee	0.0944327
147	0x3cb4a823	0.02205283
148	0xbd61fd7a	-0.055173375
149	0x3d5ef08f	0.054428633
150	0xbd490ea4	-0.049086228
151	0xbd0c0797	-0.034186926
152	0xbd07c69e	-0.0331484
153	0x3d2ab636	0.041677676
154	0xbce5fda7	-0.028075052
155	0xbd315dd6	-0.04330238
156	0xbd89cc81	-0.06728459
157	0x3db5ddbe	0.088801846
158	0xbdcd1276	-0.10013287
159	0x3a0f7a8f	0.000547328
160	0x3ca3c892	0.0199931
161	0x3d3c9543	0.046040785
162	0x3e1bb4e3	0.15205722
163	0xbd2ad0b1	-0.04170293
164	0x3ca25e0a	0.019820232
165	0xbc947a72	-0.018124793
166	0xbdf0c341	-0.11755992
167	0x3d5b46ea	0.053534426
168	0x3c588e67	0.013217545
169	0x3c7067aa	0.014673153
170	0x3d28585d	0.041099895
171	0x3d2f556c	0.042806074
172	0x3d3767fa	0.044776894
173	0x3cd6cdcc	0.026221178
174	0x3dd90748	0.10597092
175	0xbcfe4c77	-0.03104232
176	0x3d80a652	0.06281723
177	0x3c84bc17	0.01620297
178	0x3c80d6c6	0.015727412
179	0x3e09a6c2	0.1344252
180	0x3d9323e0	0.07184577
181	0x3d2e16ae	0.042502098
182	0xbd433ea4	-0.04766716
183	0x3d86020a	0.06543358
184	0x3e0a4df1	0.13506295
185	0x3b20921c	0.002450115
186	0x3d82692e	0.06367718
187	0x3d7a7736	0.061148845
188	0x3d49f98e	0.04931026
189	0x3da01367	0.07816201
190	0xbd82b5a7	-0.06382304
191	0x3da57461	0.08078838
192	0x3ca0fd4e	0.019652035
193	0xbd891af0	-0.06694591
194	0xbda27037	-0.079315595
195	0x3d85b980	0.06529522
196	0x3ba20c3d	0.0049453066
197	0xbdf24f2b	-0.11831506
198	0xbce3de27	-0.027815891
199	0x3cc37c76	0.023863059
200	0xbd33d63c	-0.04390548
201	0x3cc41a86	0.023938429
202	0xbdb32ecf	-0.087491624
203	0xbd98d239	-0.07461972
204	0x3d2aa61c	0.04166232
205	0x3db8c587	0.0902205
206	0xbd5e2ca8	-0.054241806
207	0x3c23aaef	0.009989484
208	0xbc68e926	-0.014215743
209	0xbd4d7400	-0.050159454
210	0xbd924c02	-0.071434036
211	0xbc33896a	-0.010958055
212	0x3d7056b1	0.058676425
213	0xbd820dc9	-0.063502856
214	0x3d84a20b	0.0647622
215	0x3d767238	0.06016752
216	0xbcc5f95b	-0.024166754
217	0x3c75435f	0.014969676
218	0xbd44f297	-0.048082914
219	0xbd9628a2	-0.07331969
220	0xbd345cf5	-0.044033963
221	0xbd548d3c	-0.051892504
222	0xbd822d96	-0.06356351
223	0x3d16b322	0.036791928
224	0x3dedf977	0.11619847
225	0x3e3a7c6d	0.18211527
226	0xbd2e779e	-0.042594545
227	0xbb941702	-0.0045193443
228	0xbc816d58	-0.01579921
229	0xbcaef446	-0.021356713
230	0x3d299071	0.041397516
231	0xbd863b6c	-0.065543026
232	0xbd19bff0	-0.03753656
233	0xbdc261cb	-0.09491309
234	0xbdb796e5	-0.08964328
235	0xbbba46aa	-0.0056846933
236	0x3986d41a	0.000257165
237	0x3c88200f	0.01661685
238	0xbd354eb9	-0.04426453
239	0x3d88a1a2	0.06671454
240	0x3d96d2e2	0.073644415
241	0xbbf5e009	-0.0075035137
242	0x3d076401	0.033054356
243	0x3ce80ced	0.028326476
244	0xbd9d7230	-0.07687795
245	0x3dd83240	0.105564594
246	0x3d9f6de2	0.0778463
247	0xbd9fabed	-0.07796464
248	0xbd1db01d	-0.038498033
249	0xbd7d9c6a	-0.061916746
250	0xbd683383	-0.05668975
251	0xbd916037	-0.0709843
252	0x3de3b8cd	0.11119232
253	0xbda61980	-0.081103325
254	0x3c66abc4	0.014079038
255	0x3db2e410	0.08734906

bias f4 [200]
0	0x3d91bd54	0.071161896
1	0x3d98beec	0.074582905
2	0xbd1a48c2	-0.037667044
3	0xbd6c0d28	-0.057629734
4	0xbd5bea96	-0.053690515
5	0xbdf810c9	-0.121125765
6	0x3d859034	0.06521645
7	0xbde2313e	-0.110445485
8	0x3e00ad7a	0.12566176
9	0x3da2df3a	0.07952733
10	0x3cd4ae77	0.025962098
11	0xbdc82fad	-0.097747184
12	0xbcb29762	-0.0218007
13	0x3d0effae	0.034911804
14	0xba1cb14c	-0.0005977347
15	0x3d6f4699	0.058416937
16	0x3dc08222	0.09399821
17	0xbc6913fb	-0.014225955
18	0x3dd70e18	0.10500735
19	0x3dfd009a	0.1235363
20	0xbdfb6237	-0.12274592
21	0x3e004695	0.12526925
22	0xbd9db2c1	-0.0770011
23	0xbd0c4bf8	-0.034252137
24	0x3da2751a	0.079324916
25	0xbcce1a6e	-0.025159087
26	0xbd95f45d	-0.07321999
27	0xbdfd4f59	-0.1236865
28	0x3ddc4a59	0.10756368
29	0xbd90c398	-0.070685565
30	0x3b61ec14	0.003447299
31	0xbc20748d	-0.009793413
32	0xbdd61a0d	-0.104541875
33	0x3d899922	0.06718661
34	0x3d9928a8	0.07478458
35	0x3dcd03f4	0.100105196
36	0xbdfe2779	-0.124098726
37	0xbe0d8bfd	-0.13822933
38	0x3c51e890	0.012811795
39	0x3cc439b6	0.0239533
40	0xbd2cb29a	-0.042162515
41	0xbd66067b	-0.056158524
42	0xbdfd54ce	-0.12369691
43	0x3d8774c5	0.06614069
44	0xbd44a9f5	-0.048013646
45	0x3dadb43a	0.08481641
46	0x3da8e213	0.08246245
47	0x3cdcf1f9	0.02697085
48	0xbc3a04a6	-0.011353647
49	0xbcd49bad	-0.025953138
50	0x3a4d6d5c	0.0007836425
51	0xbbf869a2	-0.007580952
52	0xbdfad157	-0.1224696
53	0xbd887963	-0.06663778
54	0x3d0c2cfe	0.034222595
55	0xbd9c8538	-0.07642597
56	0xbbba36f8	-0.0056828223
57	0xbd56695f	-0.052346583
58	0x3d443c39	0.047908995
59	0xbd9f23ca	-0.07770498
60	0xbd7dfa47	-0.06200626
61	0x3dce2754	0.10066095
62	0xbdbdadbb	-0.09261652
63	0x3dc3e193	0.09564509
64	0xbc7f46d3	-0.015580851
65	0x3ddc9c42	0.10771991
66	0xbd847107	-0.06466871
67	0x3ce26f8b	0.027641078
68	0x3de5b1ab	0.11215528
69	0x3dac6d0e	0.08419238
70	0x3cc25fb2	0.023727272
71	0xbda36b61	-0.07979465
72	0x3d01ad49	0.0316594
73	0xbd635435	-0.055500228
74	0xbd8ac1bd	-0.06775234
75	0xbdacd20c	-0.08438501
76	0xbdc1765b	-0.09446403
77	0xbccece0d	-0.025244737
78	0x3c842551	0.016131075
79	0x3db47704	0.08811763
80	0x3da26e73	0.07931223
81	0x3df20dfb	0.11819073
82	0xbd04afd0	-0.03239423
83	0xbdf50031	-0.11962927
84	0xbe0048ab	-0.1252772
85	0xbd784b49	-0.060618673
86	0x3dc78178	0.09741491
87	0xbd6c4231	-0.057680313
88	0xbd20be97	-0.03924426
89	0xbc616be5	-0.013758634
90	0x3c9edc73	0.019392228
91	0xbd49ef65	-0.04930057
92	0xbd840a3c	-0.064472646
93	0xbd95db14	-0.073171765
94	0xbd969fe1	-0.07354713
95	0xbcbd6d54	-0.02312342
96	0xbdd0e622	-0.10200144
97	0x3ddc28ca	0.107499674
98	0x3db969a2	0.09053351
99	0x3c47a44b	0.012185167
100	0xbdc64d7f	-0.0968275
101	0xbcd90968	-0.026493743
102	0x3cfc0888	0.030765787
103	0x3c8a1e85	0.016860256
104	0xbde63078	-0.112397134
105	0x3d9af2fa	0.07565875
106	0xbcb0e3d0	-0.021593004
107	0xbda14e6f	-0.07876288
108	0xbe06a053	-0.13147096
109	0x3c1a0f80	0.00940311
110	0x3dd5c5e6	0.10438137
111	0xbd220599	-0.03955612
112	0xbe02cca7	-0.12773381
113	0xbd418ed6	-0.04725536
114	0x3d85db89	0.06536014
115	0xbd9d738b	-0.07688054
116	0xbd44eac5	-0.048075456
117	0x3d7048ae	0.058663063
118	0x3b05953c	0.002038314
119	0x3d994b49	0.07485063
120	0x3da8ccaa	0.082421616
121	0xbd012d5b	-0.031537395
122	0xbd7b9747	-0.061423566
123	0x3d80dcc0	0.06292105
124	0x3da00256	0.078129455
125	0x3db0051d	0.08594725
126	0x3de95d9d	0.113948084
127	0x3d95e8ec	0.07319817
128	0xbdb4ed8b	-0.0883437
129	0xbd22dd7f	-0.039762016
130	0x3d3ed5fc	0.04659079
131	0x3ccc97d1	0.024974735
132	0x3d827f6a	0.063719586
133	0x3c022341	0.0079429755
134	0x3d92df19	0.07171459
135	0xbc00059e	-0.007813839
136	0x3cb2030a	0.021729965
137	0xbd5eeb82	-0.054423817
138	0x3b2d4c6b	0.0026443254
139	0x3dbf2986	0.09334092
140	0xbcc9b789	-0.02462365
141	0x3cce7a4c	0.0252048
142	0xbd4b85d3	-0.04968817
143	0x3c061f32	0.0081861485
144	0x3d1e4f8a	0.038650073
145	0x3dc919ff	0.098194115
146	0xbcf827c5	-0.030292401
147	0xbc4e655c	-0.012597408
148	0x3c5801ec	0.013184052
149	0x3d3f9308	0.04677108
150	0x3d8fdf82	0.070250526
151	0x3dc7639b	0.09735795
152	0xbb3f75e2	-0.002921455
153	0x3cd157f5	0.025554636
154	0x3c1942f9	0.009354346
155	0x3d6e7f11	0.05822665
156	0x3dbb9843	0.09159901
157	0xbdb62dd0	-0.08895457
158	0x3de9fd68	0.114252865
159	0xbbd09565	-0.0063654655
160	0xbd90ca96	-0.0706989
161	0x3d928b57	0.07155483
162	0xbdb125f0	-0.08649814
163	0xbd18189f	-0.037132856
164	0x3d48cada	0.04902158
165	0x3d5da1e6	0.054109477
166	0xbb80efcb	-0.0039348355
167	0x3db256f6	0.08707993
168	0xbde32cb2	-0.11092509
169	0xbdf220cb	-0.11822661
170	0xbdc2dc6f	-0.095147006
171	0xbd84d828	-0.06486541
172	0x3d04e26a	0.032442488
173	0xbcaf49ad	-0.021397436
174	0xbdb67414	-0.08908859
175	0xbd90c960	-0.07069659
176	0x3d943600	0.07236862
177	0x3dbd546c	0.09244618
178	0xbd85429f	-0.065068476
179	0xbd949fc8	-0.07257038
180	0xbded92d1	-0.11600269
181	0xbda9338e	-0.082617864
182	0x3d4b9f21	0.049712304
183	0xbdb07033	-0.0861515
184	0x3e010b24	0.12601906
185	0x3dadbe64	0.0848358
186	0x3d3d6e44	0.046247736
187	0xbd55377f	-0.05205488
188	0x3de80415	0.113289036
189	0xbd4c6e3b	-0.04990981
190	0xbdfdc867	-0.12391739
191	0xbc324894	-0.010881562
192	0xbd58ae05	-0.052900333
193	0xbcc46888	-0.023975626
194	0xbda7a01d	-0.08184836
195	0xbd7241c7	-0.05914476
196	0xbd8159f2	-0.06315984
197	0xbd381b6a	-0.04494802
198	0x3da8b5d9	0.0823781
199	0xbc739bbf	-0.014868676

weight f4 [200, 80]
0	0x3cadc5ee	0.021212544
1	0xbcb7a372	-0.022416804
2	0xbd989692	-0.07450594
3	0x3d8862dc	0.06659481
4	0x3cc35a11	0.023846658
5	0x3d37f352	0.044909783
6	0xbd42c704	-0.047553077
7	0xbcab8ed7	-0.020942135
8	0xbdc43539	-0.09580464
9	0xbd778e57	-0.06043848
10	0x3ddf58c8	0.109056056
11	0x3dfaeb81	0.1225195
12	0xbb3784b2	-0.0028002677
13	0xbd16810b	-0.03674416
14	0x3dbc6010	0.0919801
15	0xbd861374	-0.06546679
16	0x3d7e38cc	0.062065884
17	0xbd1f77be	-0.038932554
18	0x3d303ec3	0.043028604
19	0xbd2afa35	-0.041742522
20	0xbdb0c10a	-0.08630569
21	0xbd74e610	-0.059789717
22	0x3d332e6e	0.04374545
23	0x3bfeaa36	0.0077717556
24	0x3d97423e	0.073856816
25	0x3d8b330b	0.06796845
26	0x3da38c31	0.07985724
27	0x3ddd8e2c	0.10818133
28	0xbd08950c	-0.033345267
29	0x3cc2865c	0.023745708
30	0x3d1cfc2c	0.038326427
31	0x3c0fa6a8	0.008767761
32	0x3c726cf6	0.014796486
33	0xbd35a187	-0.044343498
34	0xbd4a1bd4	-0.049342945
35	0x3df7c4ca	0.120980814
36	0xbd18e713	-0.037329745
37	0x3d9e7245	0.07736639
38	0x3cf80f99	0.030280875
39	0xbcc2647a	-0.023729552
40	0xbd816444	-0.06317952
41	0x3d6f26f2	0.05838675
42	0xbcf5d590	-0.030009061
43	0x3da3f19b	0.08005067
44	0xb97e1f86	-0.00024235071
45	0xbd8398f3	-0.06425657
46	0xbdf0988e	-0.117478475
47	0xbdc9f97a	-0.09862037
48	0x3d8d5ef5	0.06902877
49	0xbde9067c	-0.1137819
50	0xbdbd8cad	-0.092553474
51	0xbdd6b193	-0.10483088
52	0x3d9c0fe5	0.07620219
53	0x3d142cb6	0.036175452
54	0x3d6e7059	0.05821261
55	0xbd9401da	-0.07226916
56	0xbde5d31c	-0.112219065
57	0x3daefff3	0.08544912
58	0xbdd537e7	-0.10411053
59	0xbd817deb	-0.06322845
60	0x360793a0	2.0202497e-06
61	0xbdbd40b9	-0.092408605
62	0xbd487612	-0.048940726
63	0x3df31fac	0.11871275
64	0xbde0b649	-0.10972268
65	0xbc87fa9a	-0.016598988
66	0x3d7b788e	0.061394267
67	0x3d055df5	0.032560308
68	0x3d833775	0.06407062
69	0x3cfbdc54	0.03074471
70	0xbcef1a59	-0.029187368
71	0x3af286a2	0.0018503258
72	0xbdddbde9	-0.10827238
73	0xbdbaea81	-0.09126759
74	0x3dbed533	0.09318008
75	0xbd3669f3	-0.044534635
76	0x3dc33b60	0.09532809
77	0x3d8d22c0	0.06891394
78	0xbcb14ffc	-0.021644585
79	0x3b025dfb	0.0019892443
80	0x3bf3a797	0.0074357498
81	0xbb042fd1	-0.0020170102
82	0xbd80ea6c	-0.062947124
83	0xbdcfc023	-0.10144069
84	0x3dd1d627	0.102459244
85	0xbcc18a5d	-0.023625547
86	0xbc9ef878	-0.019405589
87	0xbe4fbf69	-0.20287861
88	0x3cd989ea	0.02655502
89	0xbc86637d	-0.016404862
90	0x3e000eef	0.12505697
91	0xbd24d003	-0.040237438
92	0xbd95186f	-0.07280051
93	0x3c376f55	0.011195977
94	0x3dee4778	0.11634725
95	0x3d021d56	0.03176626
96	0xbdbb0dff	-0.09133529
97	0xbdea8d13	-0.11452689
98	0x3deacfe8	0.11465436
99	0xbdd73603	-0.10508349
100	0xbca6f2a1	-0.020379366
101	0xbe5a109c	-0.21295398
102	0xbd1eab82	-0.03873778
103	0xbd9a0f8c	-0.075224966
104	0x3bed63a4	0.007244544
105	0xbcbfb7a8	-0.023403004
106	0xbc82eb0e	-0.015981223
107	0xbc7a1c39	-0.015265518
108	0xbde05f78	-0.10955709
109	0x3dac024a	0.08398874
110	0xbde4b4a9	-0.11167271
111	0xbda2b842	-0.07945301
112	0xbc929d5f	-0.017897306
113	0xba0fc0c9	-0.00054837443
114	0x3de2a1dc	0.110660285
115	0xbdea7fc3	-0.1145015
116	0xbd91b1dd	-0.07114003
117	0x3d6cff98	0.05786094
118	0xb98cc7dc	-0.00026851788
119	0x3e201e05	0.15636452
120	0x3d349fb9	0.044097636
121	0xbce66172	-0.028122637
122	0xbd2000fc	-0.03906344
123	0x3c095dd0	0.008384183
124	0x3d1fed6c	0.039044783
125	0xbc8757a5	-0.016521284
126	0x3d3819f4	0.044946626
127	0x3e015741	0.12630941
128	0xbe282909	-0.16421904
129	0xbe65a029	-0.22424378
130	0xbd8684cd	-0.065682985
131	0x3d1e5512	0.038655348
132	0x3dc85608	0.09782034
133	0xbd2c9181	-0.04213095
134	0x3e189a00	0.14902496
135	0xbe7b4215	-0.24536927
136	0x3c9ccf5a	0.019141842
137	0x3ccb6dbe	0.024832603
138	0xbc2401f9	-0.010010236
139	0xbc9fc286	-0.019501936
140	0x3e6daf60	0.23211432
141	0x3decf143	0.115694545
142	0xbc7d3fae	-0.015457077
143	0x3de0c47a	0.10974975
144	0x3c8a6754	0.016894974
145	0xbcbd71e6	-0.0231256
146	0x3e24cb0c	0.16093081
147	0xbd9bad8f	-0.07601463
148	0x3d8ea310	0.069646955
149	0x3db0ab38	0.086264074
150	0xbdab233f	-0.08356332
151	0x3d41ea44	0.047342554
152	0x3cb47e82	0.02203298
153	0xbc9a50c6	-0.018837344
154	0xbd96d8dc	-0.073655814
155	0x3e0b8224	0.13623863
156	0xbd84fb38	-0.06493229
157	0x3e09f532	0.13472441
158	0x3dab821e	0.08374427
159	0x3c7ac07f	0.015304684
160	0xbd8b575b	-0.06803771
161	0x3d6f887e	0.05847978
162	0xbd84249d	-0.06452296
163	0xbda96f62	-0.08273198
164	0x3cae51a0	0.021279156
165	0x3d71e07b	0.059051972
166	0xbc2e3583	-0.010632875
167	0xbcba469a	-0.022738744
168	0x3b195840	0.0023398548
169	0x3d4df5e7	0.05028334
170	0x3de9d070	0.114167094
171	0xbbbc87dd	-0.005753501
172	0x3d8b1357	0.06790798
173	0x3d910bed	0.07082353
174	0x3d92e445	0.07172445
175	0x3cccf133	0.025017357
176	0xbc5f7630	-0.013639018
177	0x3d8cf412	0.0688249
178	0x3d94e6ac	0.0727056
179	0xbe027015	-0.12738068
180	0x3df75db5	0.1207842
181	0x3c9dcef1	0.019263716
182	0xbd96ae6a	-0.073574856
183	0xbd1146fe	-0.035468094
184	0x3dd73c43	0.10509541
185	0x3dbde78b	0.09272679
186	0x3cf65dbc	0.030073993
187	0xbce77a20	-0.028256476
188	0xbd464f4d	-0.04841547
189	0x3d8d8dd0	0.06911814
190	0x3d8af512	0.06785025
191	0x3c4461bf	0.011986195
192	0xbdcba95d	-0.09944413
193	0xbd34ca06	-0.044137977
194	0x3dddfc54	0.108391434
195	0x3c8582b3	0.016297674
196	0xbd14a61e	-0.036291234
197	0xbd903893	-0.07042041
198	0x3d008092	0.031372614
199	0xbd8d2eed	-0.06893716
200	0x3be441d9	0.0069658575
201	0xbd9caac2	-0.07649757
202	0x3e2653d3	0.16242914
203	0x3dc7268f	0.09724151
204	0xbc3f3a59	-0.011671626
205	0xbd94c6fa	-0.07264514
206	0xbcb9a95c	-0.022663765
207	0xbd39e2d8	-0.04538235
208	0x3d2837cf	0.04106885
209	0x3d622f21	0.055220727
210	0xbdd43a59	-0.103626914
211	0xbdc6323c	-0.0967755
212	0xbd8c6d31	-0.06856764
213	0x3d8ef815	0.06980912
214	0x3d3d80a4	0.04626526
215	0xbd1863bc	-0.03720449
216	0xbdc52ee9	-0.09628088
217	0x3da4ab6c	0.08040509
218	0xbd3fbbfa	-0.046810128
219	0xbc13d99d	-0.009024051
220	0x3dc418b0	0.09575021
221	0xbdd674a2	-0.10471465
222	0x3d06a573	0.03287263
223	0xbe17eb64	-0.14835888
224	0xbc11ef57	-0.008907161
225	0x3d1a1251	0.037615124
226	0xbde982b2	-0.11401881
227	0x3ce8d431	0.028421493
228	0x3d915743	0.07096722
229	0xbdce48b2	-0.10072459
230	0xbd85a346	-0.065252826
231	0xbc774783	-0.015092733
232	0x3db1fea0	0.08691144
233	0xbccabab3	-0.024747228
234	0xbc93bdee	-0.018034901
235	0x3db37b3d	0.0876374
236	0xbd8bc6b7	-0.06825011
237	0xbdb623e6	-0.08893566
238	0x3df66811	0.12031568
239	0x3da189a8	0.07887584
240	0x3cf11507	0.029428972
241	0x3d629d44	0.05532576
242	0x3c3da707	0.011575467
243	0xbdb9d440	-0.090736866
244	0x3cbcb736	0.02303658
245	0x3c185b92	0.009299176
246	0x3dee47a7	0.1163476
247	0xbcd27b59	-0.025693582
248	0x3bbcea55	0.0057652392
249	0xbcc2fd15	-0.02380232
250	0xbd55ce7a	-0.052198865
251	0x3d6adebc	0.057341322
252	0xbd01c6b8	-0.031683654
253	0x3d4bc206	0.049745582
254	0xbd83a91e	-0.06428741
255	0xbd829b28	-0.0637725
