models/vq_encoder_model.pkl (torch_old, 867785 bytes, 22 tensors)

weight f4 [80, 12]
0	0x3e036da9	0.12834801
1	0x3d50ab6d	0.050944734
2	0xbe8d3ae7	-0.27584
3	0x3dcfa75c	0.10139343
4	0xbe8e03b3	-0.27737197
5	0x3e087ed8	0.13329637
6	0x3e015227	0.12628995
7	0x3e5e1036	0.21685871
8	0x3df0d24f	0.11758863
9	0x3ee1b730	0.44085073
10	0xbe9400a6	-0.28906745
11	0xbdf4642e	-0.1193317
12	0xbe8d3051	-0.27575925
13	0x3dd649c6	0.1046329
14	0x3e0b0de9	0.13579525
15	0x3dba04f6	0.090829775
16	0x3e8a088d	0.2695965
17	0xbea8fc53	-0.33005008
18	0x3ec397f7	0.38201877
19	0x3e7e268d	0.24819393
20	0x3e472adc	0.19449943
21	0x3e6a375a	0.22872677
22	0x3e20388e	0.15646574
23	0x3d9854a5	0.0743802
24	0xbd82f81d	-0.0639498
25	0xbe91dd08	-0.28488946
26	0x3ddd8288	0.108159125
27	0xbe2d2a3b	-0.16910641
28	0xbe379bc8	-0.1793052
29	0x3e8950d7	0.26819488
30	0xbf163651	-0.5867663
31	0xbe58545a	-0.21125928
32	0x3d9f3cc2	0.077752605
33	0xbe38b28b	-0.18036859
34	0xbe8d3b33	-0.27584228
35	0x3d911e0f	0.07085811
36	0xbe8b5651	-0.27214292
37	0x3dd8f6ac	0.10593924
38	0x3d9e8ad1	0.07741321
39	0xbd545579	-0.051839326
40	0x3e24a249	0.16077532
41	0x3dccb328	0.09995109
42	0xbf1e81bd	-0.61916715
43	0x3e13bb90	0.14427018
44	0xbd9a1c5e	-0.07524942
45	0xbebe5f87	-0.37182257
46	0x3e4dac80	0.20085335
47	0xbe8f9f0e	-0.28051037
48	0x3deaee94	0.114712864
49	0x3dc118d1	0.094285615
50	0x3ebdd195	0.3707396
51	0x3e8437e9	0.25823906
52	0x3e5205a4	0.20509964
53	0xbbd73f51	-0.006568827
54	0x3ebbf74a	0.36712104
55	0x3e01da67	0.1268097
56	0x3e763298	0.24042737
57	0xbeab4a7d	-0.33455268
58	0xbe33e337	-0.17567144
59	0xbe417652	-0.18892792
60	0x3df3446a	0.11878283
61	0xbe40b12e	-0.18817589
62	0x3e383b9a	0.17991486
63	0xbdce18ec	-0.10063347
64	0xbe614e94	-0.22002631
65	0x3e97d0de	0.2965154
66	0x3f003229	0.5007654
67	0x3d89bc4f	0.0672537
68	0xbe999101	-0.29993442
69	0x3e8e414e	0.277842
70	0x3ea1250d	0.3147358
71	0xbdfdf914	-0.124010235
72	0x3e88bc38	0.267061
73	0xbd509013	-0.05091865
74	0xbe9e602d	-0.3093275
75	0xbe6202e4	-0.22071415
76	0xbe7be67d	-0.24599643
77	0x3de7f1ba	0.113254026
78	0xbdfe8d92	-0.12429346
79	0x3d722a3f	0.05912232
80	0x3ea75814	0.32684386
81	0xbec68b93	-0.38778362
82	0x3dc52e1d	0.09627936
83	0x3e7975e5	0.2436138
84	0xbe62547e	-0.22102544
85	0x3e8bb198	0.2728393
86	0xbe292fb0	-0.16522098
87	0xbdbcd128	-0.09219581
88	0x3cccdc03	0.025007254
89	0x3c22b5be	0.009931026
90	0x3d99f1ee	0.075168476
91	0xbde123a4	-0.10993126
92	0xbdb4996d	-0.08818326
93	0xbec5a48d	-0.38602105
94	0xbdccb321	-0.099951036
95	0x3d2d17c8	0.042259008
96	0xbe1027e5	-0.14077719
97	0xbe3e1bb4	-0.18565255
98	0xbea7efdf	-0.32800195
99	0x3bf46914	0.0074588154
100	0x3e884b99	0.26620176
101	0x3de4cdca	0.11172064
102	0x3f0d3b4b	0.551686
103	0x3df69538	0.1204018
104	0x3e9a5209	0.30140713
105	0xbe18087d	-0.14846988
106	0xbe3c627a	-0.18396941
107	0x3d91285e	0.070877776
108	0xbeac392a	-0.33637363
109	0x3ddbb0f1	0.10727108
110	0xbe8d986f	-0.2765536
111	0xbd813c16	-0.063102886
112	0x3e507346	0.20356473
113	0x3d6e49f4	0.058175996
114	0x3ed01134	0.40638125
115	0xbe4d9389	-0.20075811
116	0xbe9b0517	-0.3027732
117	0x3c033ea7	0.008010543
118	0x3e41b172	0.18915346
119	0xbe3d9c85	-0.18516739
120	0x3c58fe0c	0.013244163
121	0x3c55835a	0.013031805
122	0xbe23f7c1	-0.1601248
123	0x3d8663fb	0.065620385
124	0xbe92785d	-0.28607455
125	0x3e0f1880	0.1397419
126	0xbefa2318	-0.488549
127	0xbd7dee89	-0.061995063
128	0xbe9c28a4	-0.30499756
129	0x3edcfabc	0.43160045
130	0xbe31fb71	-0.17381074
131	0xbe76ebe2	-0.2411342
132	0x3e321c04	0.173935
133	0xbea77d1b	-0.32712635
134	0x3cbb2a94	0.022847451
135	0x3d2ecc59	0.04267535
136	0x3e631311	0.22175242
137	0x3db87376	0.090063974
138	0xbee50273	-0.4472843
139	0xbad77332	-0.0016437529
140	0xbeb4d9f9	-0.3532255
141	0x3e9e3276	0.30897874
142	0x3ead2ae6	0.3382179
143	0xbe341cc8	-0.17589104
144	0xbe19ed7d	-0.15032001
145	0xbe2b2cd2	-0.16716316
146	0x3dabae6e	0.08382879
147	0xbc16b7e7	-0.009199119
148	0x3e44f90a	0.19235626
149	0x3e0a0b6a	0.13480917
150	0xbee352de	-0.4439916
151	0xbe9bd8b4	-0.3043877
152	0xbec1b6c3	-0.3783475
153	0xbe474f3c	-0.1946382
154	0x3ebd2b6b	0.36947188
155	0x3cab77df	0.020931182
156	0x3e6f7e0c	0.23387927
157	0xbe021885	-0.12704666
158	0xbcf03076	-0.029319983
159	0x3ab93d76	0.0014132697
160	0xbe2e171e	-0.17001006
161	0xbe2102a1	-0.15723659
162	0x3e349577	0.17635141
163	0xbc928c7a	-0.01788925
164	0xbe55c7fe	-0.20877072
165	0xbe4b7588	-0.19869053
166	0xbe5e214e	-0.21692392
167	0xbe0130ad	-0.12616225
168	0xbe96cc80	-0.29452896
169	0xbe2631bd	-0.16229911
170	0x3e6625f8	0.22475421
171	0x3e5ab336	0.21357426
172	0xbd5ebe4e	-0.054380707
173	0xbe37543e	-0.1790323
174	0x3e160646	0.1465083
175	0xbdaa6763	-0.08320501
176	0xbd8ddc09	-0.06926734
177	0x3ed12831	0.40850976
178	0x3eba8cac	0.3643545
179	0xbdf116d0	-0.11771929
180	0x3e97ca54	0.29646552
181	0x3e349694	0.17635566
182	0xbe67dde3	-0.22643237
183	0x3e61737b	0.22016709
184	0x3dba64c0	0.09101248
185	0x3e4aee45	0.19817455
186	0xbf0add0b	-0.54243535
187	0xbe7389e5	-0.23783071
188	0x3e690ec6	0.22759542
189	0x3eb881c3	0.360365
190	0x3d96e185	0.07367233
191	0x3e14cb86	0.14530763
192	0x3e0587a6	0.13040027
193	0x3e05ec27	0.13078366
194	0xbe0c61fb	-0.13709252
195	0xbdf312a9	-0.118687935
196	0x3cd09b2a	0.025464613
197	0x3d794852	0.060859986
198	0xbe8b9b48	-0.27266908
199	0x3e16ecc7	0.14738761
200	0xbec4113e	-0.38294405
201	0xbe09dec8	-0.1346389
202	0x3e93e738	0.28887343
203	0x3e46c03a	0.19409266
204	0x3d791fe1	0.060821418
205	0x3e8a7c4f	0.27047965
206	0x3e296d59	0.16545619
207	0xbdcebdd7	-0.10094803
208	0x3e2cda2f	0.16880105
209	0x3cc81a8c	0.024426721
210	0x3d380498	0.044926256
211	0x3e4bbae8	0.19895518
212	0x3df8d189	0.12149341
213	0xbe5edd6c	-0.21764153
214	0xbe0cfa15	-0.13767274
215	0xbc5303c0	-0.012879312
216	0x3cef5254	0.029214062
217	0xbdc65224	-0.09683636
218	0xbc0b9747	-0.008519954
219	0x3e266a15	0.16251405
220	0xbe802c72	-0.2503391
221	0xbdc81d04	-0.09771159
222	0x3dd79c2f	0.105278365
223	0xbdd846b2	-0.10560359
224	0x3e6e587a	0.23275939
225	0x3effc5ed	0.49955693
226	0x3e395d34	0.1810196
227	0xbe1625b7	-0.14662825
228	0xbe960344	-0.29299366
229	0xbe19b6da	-0.15011159
230	0xbe96f67e	-0.29484934
231	0xbd53c843	-0.051704656
232	0x3e5276ab	0.2055308
233	0xbe4e24ee	-0.20131275
234	0x3ed75ee3	0.4206458
235	0xbcce34e1	-0.025171699
236	0x3cc8bcf6	0.024504166
237	0xbec49de7	-0.3840172
238	0x3e417ff6	0.1889647
239	0xbe43aa71	-0.19107987
240	0x3e57e8e5	0.21084936
241	0xbe90e752	-0.28301483
242	0xbe200c47	-0.15629683
243	0xbb27e761	-0.002562009
244	0xbcd3a3e7	-0.02583499
245	0x3d6c75be	0.057729475
246	0x3f083136	0.5320009
247	0x3e31efbb	0.17376606
248	0xbddf6515	-0.10907952
249	0xbea42f51	-0.3206735
250	0xbd34167a	-0.043966748
251	0xbe890a4a	-0.26765662
252	0xbe8bf4af	-0.27335116
253	0x3d1a72fa	0.037707306
254	0xbdbe4e97	-0.092923336
255	0xbb710d5e	-0.003678165

bias f4 [80]
0	0x3d950b6a	0.07277568
1	0xbe33cba3	-0.1755815
2	0x3e10ef73	0.14153843
3	0x3e207488	0.15669453
4	0xbe809d00	-0.25119781
5	0xbdff9b2d	-0.12480769
6	0xbbf77e7f	-0.0075529213
7	0x3d8e93e2	0.069618
8	0xbe5cdf44	-0.21569544
9	0x3e6e1778	0.2325114
10	0xbdd0fcfa	-0.102045015
11	0xbdd4f05e	-0.10397409
12	0x3def52c6	0.1168571
13	0xbe019f4e	-0.12658426
14	0xbd2efeb3	-0.04272337
15	0x3c100072	0.008789169
16	0x3d4f99ff	0.05068397
17	0xbe76cc59	-0.2410139
18	0x3e881e36	0.2658555
19	0x3e2ba03f	0.16760348
20	0xbb8222b6	-0.003971423
21	0xbc15cd47	-0.00914318
22	0xbe4f9bc5	-0.20274265
23	0x3c9018c6	0.017589938
24	0x3de086d8	0.109632194
25	0x3de9f408	0.114234984
26	0xbd9b6bc5	-0.07588915
27	0x3d256828	0.040382534
28	0xbcde8f57	-0.02716796
29	0xbe6d1078	-0.23150814
30	0xbe53352f	-0.20625757
31	0xbe644507	-0.22291957
32	0x3e03c690	0.12868714
33	0xbd3fe812	-0.04685218
34	0xbe0d537c	-0.13801378
35	0xbe95bfc7	-0.29247877
36	0xbd87edc5	-0.06637148
37	0xbd73195d	-0.05935036
38	0xbe23992b	-0.15976398
39	0x3e46633f	0.19373797
40	0x3e2476a3	0.16060881
41	0xbda90e57	-0.08254688
42	0xbe85ed36	-0.2615754
43	0x3ea42e34	0.320665
44	0xbe69312a	-0.22772661
45	0xbe5ec857	-0.21756111
46	0x3e287087	0.16449176
47	0x3e2734f5	0.16328795
48	0xbd7c7056	-0.06163057
49	0xbdecffbf	-0.11572217
50	0x3da7c585	0.08191971
51	0x3d247ae8	0.040156275
52	0x3e450d11	0.19243266
53	0xbdf80602	-0.12110521
54	0xbba23116	-0.004949699
55	0xbdfe9eda	-0.12432642
56	0x3decda38	0.115650594
57	0x3e649f68	0.22326434
58	0xbe600ac2	-0.21879104
59	0xbe56095e	-0.20902011
60	0xbdccc428	-0.09998351
61	0x3e1e4155	0.1545461
62	0x3e66cbc3	0.22538666
63	0x3d6dd1c7	0.058061387
64	0xbe72315c	-0.23651642
65	0x3de99b8d	0.11406622
66	0x3e8b6fa3	0.2723361
67	0xbbd2b19b	-0.0064298636
68	0x3e0cdebb	0.1375684
69	0xbe7f7ecc	-0.24950713
70	0x3ddc4f05	0.10757259
71	0x3e3c528a	0.18390861
72	0x3e4dadbd	0.20085807
73	0x3d3f415d	0.046693195
74	0xbe0e2bde	-0.13883922
75	0xbc733c5b	-0.014845933
76	0x3dcbbddd	0.09948323
77	0x3bc7c022	0.006095902
78	0x3d97ae33	0.07406273
79	0x3dcbcc57	0.09951084

weight f4 [200, 80]
0	0xbc13a686	-0.00901187
1	0xbd3ee626	-0.046606205
2	0x3e870618	0.26371837
3	0x3ca4a9c2	0.020100478
4	0x3c6489ea	0.013948897
5	0xbdf71470	-0.12064445
6	0xbd0b3437	-0.033985343
7	0x3da38850	0.07984984
8	0x3e00efeb	0.12591521
9	0xbe0c8b70	-0.13725066
10	0xbd2ed189	-0.042680297
11	0xbd05b986	-0.032647632
12	0x39a26822	0.00030976633
13	0xbdf4f7f9	-0.119613595
14	0xbdb6089a	-0.08888359
15	0xbdf8d027	-0.12149077
16	0xbd8692d1	-0.06570972
17	0xbd60bed3	-0.054869484
18	0xbe1c369e	-0.1525521
19	0xbd2b37ec	-0.041801378
20	0x3d1b986c	0.037987158
21	0x3d8ca39c	0.068671435
22	0x3d85d0ef	0.065339915
23	0xbcb9f61c	-0.022700362
24	0xbe492db6	-0.19646344
25	0xbc0366da	-0.008020127
26	0x3d7efc65	0.06225242
27	0xbc526fd5	-0.012844046
28	0x3d9e006e	0.07714926
29	0x3d99dda2	0.07512976
30	0x3dbb7309	0.091528006
31	0x3d8d277a	0.06892295
32	0xbd90ea45	-0.07075933
33	0x3d8b9d0c	0.06817064
34	0xbde7e087	-0.11322122
35	0xbdb9610a	-0.09051712
36	0x3e0eb464	0.13936001
37	0x3d984ce5	0.074365415
38	0x3c4d4c03	0.01253033
39	0xbd026ee0	-0.03184402
40	0x3bc96c39	0.0061469343
41	0x3c6a6a90	0.014307633
42	0xbd13229e	-0.035921685
43	0xbda7ae64	-0.08187559
44	0x3d359c9d	0.04433881
45	0xbccc2dd3	-0.024924194
46	0xbda89abc	-0.08232638
47	0x3cc8d646	0.024516236
48	0x3db2bab4	0.08727017
49	0xbce5656b	-0.028002461
50	0x3d82a594	0.06379238
51	0xbe67f1da	-0.22650853
52	0xbd4e7080	-0.050400257
53	0xbcf90c71	-0.03040144
54	0xbd966572	-0.07343568
55	0xbceb35d5	-0.028712193
56	0xbd8231d3	-0.063571595
57	0xbd98a8ff	-0.074541084
58	0x3d87d511	0.06632436
59	0x3d262609	0.040563617
60	0x3d17becf	0.037047204
61	0x3cf61aaf	0.03004202
62	0xbd463f43	-0.048400175
63	0xbddd07af	-0.10792481
64	0x3d91bcd4	0.07116094
65	0xbcef921f	-0.02924448
66	0xbd42e37c	-0.047580227
67	0xbdcf299c	-0.10115358
68	0xbddf3c9c	-0.10900232
69	0x3cb2e266	0.02183647
70	0xbc4e28bd	-0.012582955
71	0x3dee2edf	0.11630034
72	0xbd4e8302	-0.050417908
73	0xbe273814	-0.16329986
74	0x3db268d8	0.087114036
75	0xbe271e05	-0.16320045
76	0xbdf78d2e	-0.12087475
77	0x3cd668a2	0.02617294
78	0xbd63b699	-0.05559406
79	0xbdc1db3a	-0.09465642
80	0xbdf9920e	-0.12186061
81	0x3dd69de2	0.104793325
82	0xbe008c57	-0.12553535
83	0xbb1ccb74	-0.0023924978
84	0xbd05a196	-0.032624803
85	0xbda4e605	-0.08051685
86	0xbd56c1a8	-0.05243078
87	0xbda4efd9	-0.0805356
88	0xbc8d176d	-0.017223084
89	0x3e0f67fb	0.14004509
90	0x3de97412	0.11399092
91	0x3d961b72	0.073294535
92	0x3e585510	0.21126199
93	0xbdbd528e	-0.09244262
94	0x3e117034	0.14202958
95	0x3e1da86a	0.15396276
96	0x3d7d39b2	0.0618226
97	0x3d64a376	0.05581995
98	0x3d051126	0.032487057
99	0xbc9a43fc	-0.018831246
100	0x3a95728b	0.0011401934
101	0x3e131cdf	0.14366482
102	0x3db5f156	0.08883922
103	0x3d3f30dd	0.04667746
104	0x3e25c9d2	0.1619027
105	0xbde78845	-0.11305288
106	0xbd946553	-0.072458886
107	0xbe03156d	-0.12801142
108	0xbd4efa6d	-0.050531793
109	0xbde9cf88	-0.114165366
110	0xbd7a4e91	-0.061110083
111	0xbd87ae32	-0.06625022
112	0xbd9df83c	-0.077133626
113	0x3d1d494b	0.038399976
114	0xbbc58d09	-0.0060287756
115	0xbcfd82a0	-0.030946076
116	0xbdddbca9	-0.10827
117	0x3af8d1ee	0.0018983462
118	0x3c49ef33	0.012325096
119	0x3d149b56	0.036280952
120	0x3d028b7b	0.0318713
121	0x3d8bed9f	0.06832432
122	0x3d10338c	0.03520541
123	0xbc978b06	-0.018498909
124	0x3d08db54	0.033412293
125	0xbde70449	-0.11280114
126	0xbe4f0901	-0.20218278
127	0xbcc693e1	-0.024240436
128	0x3d8a9413	0.06766524
129	0xbdce98ed	-0.10087762
130	0xbcbbc428	-0.022920683
131	0x3e02ffc8	0.12792885
132	0x3d548844	0.051887766
133	0xbd1b43f3	-0.0379066
134	0x3db13c7a	0.08654113
135	0x3e4c104f	0.19928096
136	0xbcf2dc72	-0.029646132
137	0xbdc2de07	-0.095150046
138	0xbd3603e0	-0.04443729
139	0x3dbf7a3c	0.09349486
140	0xbdc894c5	-0.097940005
141	0x3d85104f	0.06497251
142	0xbd95d9b4	-0.07316914
143	0x3dd9674b	0.10615405
144	0xbdc944fa	-0.09827609
145	0x3c199eba	0.009376222
146	0x3d194cbb	0.03742669
147	0xbdc77853	-0.09739747
148	0xbd5ec478	-0.054386586
149	0xbd358ba7	-0.044322636
150	0xbd533959	-0.051568363
151	0x3dc1025a	0.09424277
152	0xbdb70a2c	-0.08937487
153	0xbde6038f	-0.112311475
154	0x3da91b03	0.08257105
155	0x3e04f35c	0.12983459
156	0xbd9c1411	-0.07621015
157	0xbc506f61	-0.012721867
158	0x3de26c78	0.11055845
159	0x3daa4995	0.08314816
160	0xbbafdb6c	-0.0053667333
161	0x3daecab4	0.08534756
162	0xbc203c52	-0.0097800065
163	0x3d840a0c	0.06447229
164	0xbbeba4fc	-0.0071912985
165	0x3d94e322	0.07269885
166	0x3d04d1fc	0.03242682
167	0x3c696a7f	0.014246582
168	0x3d1bcbc8	0.038036138
169	0x3e06a085	0.13147171
170	0xbce10203	-0.02746678
171	0x3cc4a667	0.024005128
172	0x3cdedeca	0.027205843
173	0x3d905d2a	0.0704902
174	0x3d544f82	0.051833637
175	0xbce92038	-0.028457746
176	0xbcb57fab	-0.022155603
177	0x3dbdf906	0.09276013
178	0xbd2270d1	-0.03965837
179	0xbd0b0b67	-0.03394642
180	0xbc0eacae	-0.008708162
181	0xbdb08c60	-0.086205244
182	0x3d93a26e	0.072087154
183	0xbbdff001	-0.0068340306
184	0x3ddd5993	0.108081006
185	0xbceafcb9	-0.02868496
186	0xbda3bee2	-0.079953924
187	0xbae1256e	-0.0017177293
188	0x3df5938b	0.11991032
189	0x3cfbb760	0.030727088
190	0x3c35c3ce	0.011094047
191	0x3da2efb7	0.07955878
192	0xbd9c2cae	-0.076257095
193	0x3d8848b8	0.06654495
194	0xbe0ec58f	-0.1394255
195	0x3dc95662	0.09830929
196	0x3d686d12	0.056744643
197	0xbdbd2873	-0.09236231
198	0xbd1a5555	-0.037679035
199	0xbdc70937	-0.097185545
200	0x3d8e7c78	0.06957334
201	0xbd928bef	-0.071555965
202	0xbdb828a6	-0.08992128
203	0xbd49362c	-0.049123928
204	0x3bd0b384	0.006369056
205	0xbd4f6187	-0.05063012
206	0xbc902d60	-0.017599761
207	0x3d755592	0.05989606
208	0x3db135be	0.08652829
209	0xbd897355	-0.06711451
210	0xbaaeb39e	-0.0013328677
211	0xbde275f7	-0.11057656
212	0x392f2614	0.00016703486
213	0x3e1f8849	0.15579332
214	0xb9db9808	-0.00041884207
215	0xbbc8069f	-0.006104305
216	0xbdc5e105	-0.0966206
217	0xbdb0b2b6	-0.086278364
218	0x3da78c19	0.081810184
219	0x3da93fbc	0.082641095
220	0x3d6409c3	0.055673372
221	0x3db12749	0.08650071
222	0xbde01857	-0.109421425
223	0xbb562431	-0.003267538
224	0x39fde70d	0.00048428067
225	0x3cebc7bd	0.028781766
226	0x3c12143e	0.008915959
227	0x3dc8ada7	0.097987466
228	0xbde898d5	-0.113572754
229	0x3c82559d	0.015909964
230	0xbe03b203	-0.12860875
231	0xbc76a7c4	-0.015054647
232	0x3b5831b3	0.0032988607
233	0xbd42fc5d	-0.047603954
234	0xbca7eb45	-0.020497927
235	0x3bbedb93	0.005824515
236	0x3d9a767d	0.07542131
237	0xbce9ee1e	-0.028555926
238	0x3df5bf4a	0.11999376
239	0xbd234976	-0.03986498
240	0x3b5fbe8d	0.0034140677
241	0xbc787761	-0.015165181
242	0x3a367cd1	0.0006961348
243	0xbcbbf0d8	-0.022941992
244	0x3c0aa13d	0.008461294
245	0x3de045c4	0.10950807
246	0x3dd6bb8e	0.10484992
247	0x3dec9b7a	0.11553092
248	0x3e267333	0.16254883
249	0x3df0c81f	0.1175692
250	0xbd3514f0	-0.04420942
251	0x3d8085e9	0.06275541
252	0x3c92e1ef	0.01793
253	0xbdb57205	-0.08859638
254	0xbcdfa0c8	-0.027298346
255	0xbe07ddf2	-0.13268259

bias f4 [200]
0	0x3bc5a96a	0.0060321586
1	0xbd761c51	-0.0600856
2	0x3c83eb9b	0.016103556
3	0xbdaba3ee	-0.083808765
4	0x3c4dadf7	0.0125536835
5	0x3d4be827	0.049781945
6	0xbd9f5590	-0.077799916
7	0xbd561a35	-0.052271087
8	0xbbb6860e	-0.00557018
9	0x3da3d93d	0.08000419
10	0xbde34c6b	-0.1109856
11	0x3d21c236	0.039491855
12	0x3dc88fcc	0.09793052
13	0xbd834a4f	-0.064106576
14	0x3d31b342	0.043383844
15	0x3dd75315	0.105138935
16	0x3db1204c	0.08648738
17	0xbd6bc77b	-0.057563286
18	0x3db646f9	0.08900256
19	0x3d289441	0.04115701
20	0x3cc75733	0.024333572
21	0xbc364dd1	-0.011126951
22	0x3d80e044	0.06292775
23	0x3dc606e2	0.096692815
24	0x3dc71017	0.09719866
25	0x3bcb807b	0.0062103844
26	0xbd9b141d	-0.07572196
27	0x3c8ba635	0.017047027
28	0xbdc2c44b	-0.09510096
29	0xbbe88293	-0.007095644
30	0x3d9324b9	0.07184739
31	0x3cad08ad	0.021122301
32	0x3d283433	0.041065406
33	0xbdc71200	-0.0972023
34	0x3d4d9236	0.050188266
35	0x3c1479ec	0.009062272
36	0xbc1e2ee0	-0.009654731
37	0xbd8e49ac	-0.069476455
38	0x3c9449c5	0.018101582
39	0xbcbf5e8a	-0.02336051
40	0xbd5e51c7	-0.054277208
41	0xbd405301	-0.04695416
42	0xbd43f530	-0.04784125
43	0x3daa332e	0.08310543
44	0x3dbc3147	0.091890864
45	0x3db6b10a	0.08920486
46	0x3db9e8bd	0.090775944
47	0x3c3c6f5a	0.011501158
48	0x3dc18167	0.0944851
49	0xbd387c11	-0.045040194
50	0xbccaefae	-0.024772491
51	0xbd87329d	-0.066014506
52	0x3d06f43b	0.03294776
53	0xbb0b99ac	-0.0021301312
54	0xbd3b64a0	-0.04575026
55	0x3847a8ed	4.760262e-05
56	0xbcce7d2f	-0.025206177
57	0x3db715b8	0.089396894
58	0x3d8b6010	0.06805432
59	0x3d937bbf	0.07201337
60	0xbdb70687	-0.08936792
61	0xbc67b8ce	-0.014143182
62	0x3dc47172	0.095919505
63	0x3d5b8390	0.053592265
64	0xbc1b356d	-0.009473187
65	0x3d819377	0.06326955
66	0x3dcc79f2	0.09984197
67	0xbd4c0cbf	-0.049816843
68	0x3c903719	0.017604398
69	0x3d288453	0.04114182
70	0xbddb2a6f	-0.10701453
71	0xbdb579e1	-0.08861137
72	0xbd6ca9a5	-0.057778973
73	0xbdafa517	-0.0857641
74	0x3daac4ad	0.08338294
75	0x3dba8346	0.0910707
76	0x3deb53ae	0.1149057
77	0x3cac2803	0.021015173
78	0xbdb7085f	-0.089371435
79	0xbd05da7f	-0.032679077
80	0x3dd06dc4	0.10177186
81	0x3d676d37	0.05650064
82	0x3cd4ebef	0.025991408
83	0x3d666b29	0.05625454
84	0x3dcbcbc1	0.09950972
85	0xbc5d51d8	-0.013508283
86	0xbc94ddbe	-0.018172141
87	0xbd882831	-0.06648291
88	0xbccf0eec	-0.02527567
89	0xbda7cd27	-0.081934266
90	0x3dbf1d04	0.09331706
91	0xbd47f477	-0.048817124
92	0x3d9e6729	0.0773452
93	0x3d8db5fe	0.06919478
94	0x3dac0294	0.08398929
95	0x3d96a499	0.07355613
96	0xbddd3ed5	-0.10803
97	0xba438df9	-0.0007459815
98	0x3d6c6ccb	0.05772094
99	0xbda4a707	-0.080396704
100	0x3daf8967	0.08571129
101	0x3d3ff2d9	0.046862457
102	0xbd137c15	-0.036007006
103	0xbd313bc4	-0.043269888
104	0x3d03e746	0.03220298
105	0x3d0141ce	0.031556897
106	0xbd4ae82c	-0.049537823
107	0xbce4a291	-0.027909549
108	0x3db9d630	0.09074056
109	0xbddc58fa	-0.107591584
110	0x3dad0cd4	0.084497124
111	0x3d9f22d8	0.07770318
112	0xbda5050f	-0.080576055
113	0xbd44002a	-0.04785172
114	0xbd83d0cd	-0.0643631
115	0x3d9ff6e0	0.078107595
116	0x3b8603ab	0.0040897927
117	0x3cfd8090	0.030945092
118	0xbc11a442	-0.00888926
119	0xbd5f4c79	-0.05451629
120	0xbd09f317	-0.033679094
121	0xbd95cc1c	-0.073143214
122	0x3dafd63d	0.085857846
123	0x3be5236c	0.006992748
124	0x3db2380b	0.087020956
125	0x3d3bf656	0.04588922
126	0xbc519ca9	-0.012793698
127	0x3d045364	0.03230609
128	0x3d0e4761	0.03473604
129	0x3d2303f6	0.0397987
130	0xbd96e8b9	-0.07368607
131	0xbd406743	-0.046973478
132	0xbddb2880	-0.10701084
133	0xbdbed76c	-0.09318432
134	0x3d9f26a7	0.07771044
135	0xbd759c78	-0.059963673
136	0x3db51f21	0.08843828
137	0xbdc4e230	-0.09613454
138	0x3d685dee	0.056730203
139	0xbd7a17a8	-0.061057717
140	0x3d8d1704	0.068891555
141	0xbc6b35da	-0.014356101
142	0xbd443cf9	-0.04790971
143	0x3db0d1fe	0.08633803
144	0x3d398c4e	0.04529982
145	0xbdb9552e	-0.0904945
146	0xbd998846	-0.07496695
147	0x3dd527f2	0.104080096
148	0xbdf52adc	-0.119710654
149	0x3de62364	0.11237219
150	0xbd159755	-0.036521275
151	0xbd830aef	-0.0639857
152	0x3cefeeb7	0.029288633
153	0x3d662c8e	0.056194834
154	0x3d814db1	0.063136466
155	0x3d365656	0.04451593
156	0x3d9efa47	0.0776258
157	0x3d2a42c1	0.041567568
158	0x3d115a30	0.0354864
159	0xbd4def13	-0.050276827
160	0x3dae19cc	0.08501014
161	0x3d695450	0.056965172
162	0xbc8129db	-0.015767029
163	0x3cc9e046	0.024643075
164	0xbdbaa4ba	-0.0911345
165	0xbcbc8dee	-0.023016896
166	0x3d8b880f	0.068130605
167	0x3cd9318e	0.026512887
168	0x3d82723a	0.06369443
169	0x3d620369	0.055179033
170	0xbda3189f	-0.079636805
171	0xbe01520f	-0.12628959
172	0x3d123807	0.035697963
173	0xbd2f3854	-0.042778328
174	0x3d57b867	0.052666094
175	0xbd621224	-0.05519308
176	0xbca88535	-0.02057133
177	0x3dac6805	0.08418278
178	0xbd8e258c	-0.06940755
179	0xbd885241	-0.06656314
180	0x3d5e599b	0.054284673
181	0xbce919f4	-0.028454758
182	0xbde1b946	-0.11021666
183	0x3c2a87be	0.01040834
184	0x3d8f8940	0.070086
185	0xbdad52f1	-0.084630854
186	0x3d8c38c6	0.06846766
187	0xbd1f72b3	-0.038927745
188	0x3c4b3e67	0.012405015
189	0x3a8d592b	0.001078402
190	0xbd125a40	-0.0357306
191	0xbd604d5d	-0.05476128
192	0xbdaf27ad	-0.085524894
193	0x3dcbd72c	0.0995315
194	0xbd0fbf11	-0.035094324
195	0xbd6f9e38	-0.0585005
196	0x3d860422	0.06543757
197	0x3c515450	0.012776449
198	0x3d9663ee	0.07343279
199	0x3d4ca31d	0.049960244

weight f4 [80, 200]
0	0xb91c96d8	-0.00014933513
1	0x3d273068	0.04081765
2	0x3d99a5e6	0.07502346
3	0x3d37fad8	0.044916958
4	0xbd6519cc	-0.055932805
5	0xbba9b93d	-0.005179553
6	0x3da9bccf	0.082879655
7	0xbcb482b7	-0.022034986
8	0x3d8c4ea9	0.06850941
9	0x3ce05c9f	0.027387915
10	0x3cffb1e2	0.03121275
11	0x3d9834c2	0.07431938
12	0xbc83a620	-0.016070426
13	0xb93d6d76	-0.00018065222
14	0x3cc7a27d	0.024369473
15	0xba4438b9	-0.0007485259
16	0x3c987d58	0.018614456
17	0x3bbdfd38	0.0057980083
18	0x3d2b6032	0.041839786
19	0xbd569c55	-0.052395184
20	0xbd543e5b	-0.05181728
21	0xbdb29584	-0.08719924
22	0xbcbf056a	-0.023318011
23	0x3caef470	0.021356791
24	0x3c5fbc08	0.01365567
25	0x3d415a75	0.047205407
26	0x3da4830c	0.08032808
27	0xbd4dff0e	-0.050292067
28	0xbd14d5c4	-0.036336675
29	0x3d1ca615	0.038244326
30	0xbdafe7fb	-0.08589169
31	0xbcb6487b	-0.022251358
32	0x3d42cb97	0.04755744
33	0xbaf9fe4c	-0.0019072979
34	0x3d4f1da4	0.050565377
35	0xbc2e884f	-0.010652616
36	0x3cbb6831	0.02287683
37	0xbc1f3298	-0.009716652
38	0x3d7fe4e9	0.062474165
39	0xbda46aff	-0.080282204
40	0xbd772a2e	-0.06034296
41	0xbc8d986a	-0.01728459
42	0x3d0e07ae	0.034675293
43	0x3be75269	0.0070593846
44	0x3c5a4f92	0.013324635
45	0x39bc7f7f	0.00035953146
46	0x3d04bfe5	0.032409567
47	0x3ce34f79	0.027747856
48	0xbd9af1df	-0.075656645
49	0xbcf522a4	-0.029923744
50	0xbd038179	-0.032105897
51	0x3d69f74f	0.057120617
52	0x3cf6e11d	0.03013664
53	0x3d3235bc	0.043508276
54	0x3c06436a	0.008194784
55	0x3d3d1e31	0.04617137
56	0xbb796d43	-0.003805951
57	0xbd0bee67	-0.034162905
58	0x3d473cca	0.048641957
59	0xbc694a11	-0.01423885
60	0x3ccbc748	0.024875298
61	0xbd1956fb	-0.037436467
62	0xbdfc57d9	-0.12321443
63	0xbd7f4fc4	-0.06233193
64	0xbd8ae541	-0.06782008
65	0x3d7330f7	0.05937287
66	0x3c990ec5	0.0186838
67	0xbc4724d2	-0.012154775
68	0xbd386929	-0.045022164
69	0xbd80c5fe	-0.06287764
70	0xbd27f318	-0.041003317
71	0x3d65b890	0.056084216
72	0xbcd12130	-0.02552852
73	0x3d131593	0.035909247
74	0xbb45452d	-0.0030101046
75	0x3d3cd330	0.04609984
76	0xbd3ab5bd	-0.045583475
77	0x3c0fbd7e	0.008773206
78	0x3d2911de	0.041276805
79	0x3cd29a01	0.0257082
80	0x3d730b55	0.05933698
81	0x3dc15f19	0.094419666
82	0xbc638ef6	-0.013889065
83	0x3d6dc2d0	0.058047116
84	0x3d0c0640	0.034185648
85	0x3c80aaf8	0.015706524
86	0x3d3d16e3	0.046164405
87	0x3d2f61a6	0.042817734
88	0xbc1d92cb	-0.009617518
89	0x3dae21a3	0.085025094
90	0x3d468e52	0.04847557
91	0x3c7267be	0.014795242
92	0xbc64ae2b	-0.0139575405
93	0x3d468f1b	0.04847632
94	0xbd0eb7db	-0.034843307
95	0x3ba3861a	0.0049903514
96	0xbd5df6d5	-0.054190475
97	0xbc9960ab	-0.018722853
98	0x3d172cac	0.036907837
99	0xbc2b04ba	-0.010438139
100	0x3da1923e	0.078892216
101	0x3d9500a7	0.07275515
102	0xbc3834f4	-0.011243094
103	0x3d9b5584	0.0758467
104	0xbe048496	-0.12941203
105	0xbc9bc0bb	-0.0190128
106	0xbd3e835e	-0.046512
107	0x3d22f66a	0.03978578
108	0xbc3dce85	-0.011584883
109	0xb8560b51	-5.1032115e-05
110	0x3caa2e95	0.020774165
111	0xbd0a356e	-0.03374236
112	0xbdba21b8	-0.090884626
113	0x3d433d12	0.047665663
114	0x3d44a020	0.04800427
115	0xbd509b09	-0.050929103
116	0x3d8939bf	0.06700467
117	0x39f04dc2	0.000458343
118	0x3d1a2398	0.0376316
119	0xbd6a8143	-0.05725218
120	0x3d158c14	0.036510542
121	0x3d4a7f80	0.049438
122	0xbba44f6c	-0.0050143506
123	0xbc71b2d4	-0.014752109
124	0x3c6aa1b3	0.014320779
125	0x3d1ac7c0	0.037788153
126	0x3d9c8d69	0.07644159
127	0xbce24a7a	-0.027623404
128	0xbd222ee5	-0.039595503
129	0xbd18fd1f	-0.03735077
130	0x3cd4b117	0.02596335
131	0x3ce57d54	0.028013863
132	0x3d226708	0.03964904
133	0x3d42411d	0.047425378
134	0x3d8462af	0.06464135
135	0xbd19cf01	-0.03755093
136	0xbd3b7dbd	-0.04577421
137	0xbccac9be	-0.024754401
138	0xbba6a991	-0.005086132
139	0xbd48ed2b	-0.049054306
140	0x3d155f01	0.036467556
141	0x3d6f21c2	0.058381803
142	0xba897b74	-0.0010489062
143	0xbd6c9c31	-0.057766143
144	0xbd7e7d5e	-0.06213128
145	0xbd873fb5	-0.06603948
146	0xbbc8be10	-0.006126173
147	0xb98794aa	-0.0002585997
148	0x3cbbd739	0.022929775
149	0xbd61e8ce	-0.05515366
150	0x3d4bb234	0.049730495
151	0x3d2b3abd	0.041804064
152	0x3ccd3ff7	0.025054915
153	0xba2bf4d5	-0.0006559615
154	0xba73c3b5	-0.0009298877
155	0xbd5654a1	-0.052326802
156	0xbdbfb14d	-0.09359989
157	0xbd1a54e1	-0.037678603
158	0xbd5a3919	-0.05327711
159	0x3d07cbdd	0.033153404
160	0x3cb32708	0.021869197
161	0x3d186aef	0.037211355
162	0x3d97b4ae	0.07407509
163	0xbd0bfa50	-0.034174263
164	0x3dc08dda	0.09402056
165	0xbda561ba	-0.080752805
166	0xbc8c022b	-0.017090878
167	0xbc9d4f35	-0.019202808
168	0x3da383b0	0.07984102
169	0xbd8472b4	-0.064671904
170	0xbcd8e3c3	-0.026475793
171	0xbcf607fe	-0.030033108
172	0x3d627cbc	0.055294737
173	0x3c076208	0.008263119
174	0xbcec0642	-0.028811578
175	0x3dab01d3	0.08349957
176	0x3da1c6ca	0.07899244
177	0x3d289461	0.04115713
178	0x3c64295f	0.013925879
179	0xbddad07b	-0.10684296
180	0xbd5fb8b0	-0.05461949
181	0x3c97c87c	0.018528216
182	0x3c503a63	0.012709233
183	0xbcedfd38	-0.029051408
184	0x3c85691e	0.016285475
185	0x3c164e60	0.0091739595
186	0x3d6bd7a8	0.057578713
187	0xbc8e2f76	-0.017356616
188	0xbd1ce78a	-0.03830675
189	0xbd53908a	-0.051651515
190	0xbca648a4	-0.02029831
191	0xbd5e1d7c	-0.054227337
192	0x3d90bb02	0.07066919
193	0x3cf5c071	0.02999899
194	0x3c38428b	0.011246334
195	0xbd3979f0	-0.045282304
196	0x3d7a4036	0.061096393
197	0xbc102aa7	-0.008799232
198	0xbc9f049b	-0.019411376
199	0x3d48667d	0.048925865
200	0xbd6547d0	-0.05597669
201	0xbd3ffe0a	-0.04687313
202	0x3c9fec58	0.019521877
203	0xbe37228b	-0.17884271
204	0xbd17828d	-0.036989737
205	0xbc0950e7	-0.008381105
206	0xbc2a995f	-0.010412543
207	0xbd251e54	-0.040312126
208	0x3cb7c427	0.0224324
209	0xbc546573	-0.0129636405
210	0x3c168f4a	0.009189436
211	0x3c9aad42	0.018881444
212	0xbd4ef77a	-0.05052898
213	0x3d8721a7	0.065982156
214	0x3d0774c3	0.033070337
215	0xbd9bd0c6	-0.0760818
216	0xbcee72de	-0.029107507
217	0x3cfd9614	0.030955352
218	0xbc59659a	-0.013268853
219	0xbd376937	-0.044778075
220	0xbcbf7cb6	-0.023374896
221	0xbd7873f0	-0.06065744
222	0xbbaa6039	-0.005199459
223	0xbbe4b439	-0.006979492
224	0x3ced913d	0.02899992
225	0xbd84e00b	-0.06488045
226	0xbdb82cdd	-0.08992932
227	0xbc05b77b	-0.008161421
228	0xbca5eadd	-0.020253593
229	0xbca68c9f	-0.020330725
230	0x39584871	0.00020626352
231	0x3d8850eb	0.06656059
232	0xbd75874c	-0.059943482
233	0x3d02117e	0.031754963
234	0xbd9a6e1a	-0.075405315
235	0x3d37edf6	0.04490467
236	0xbd600c7a	-0.0546994
237	0x3d39245d	0.045200694
238	0x3d46a9ec	0.048501894
239	0xbd66eafb	-0.05637644
240	0xbd9f147f	-0.07767581
241	0x3d20a203	0.039217006
242	0x3b708a07	0.0036703364
243	0xbe0577d6	-0.13033995
244	0xbd8eba91	-0.069691785
245	0x3bd0654e	0.0063597327
246	0xbd4159e9	-0.047204886
247	0xbcb1d609	-0.021708505
248	0x3d42836a	0.047488607
249	0xbbe8342a	-0.0070862966
250	0x3d387777	0.045035806
251	0x3cc116b8	0.023570403
252	0xbd0bc9e5	-0.03412809
253	0x3cddb38a	0.02706315
254	0x3bcb0c7e	0.0061965575
255	0x3d22cb17	0.039744463

bias f4 [80]
0	0xbda4364a	-0.08018167
1	0xbd32e168	-0.043671995
2	0x3d6c3cbd	0.057675112
3	0xbd730835	-0.059334
4	0x3d97dc84	0.07415107
5	0x3d671486	0.056416057
6	0xbd29e401	-0.041477207
7	0xbc2a240a	-0.010384569
8	0xbcb58b34	-0.022161104
9	0x3dd77de3	0.10522058
10	0xbd071b38	-0.032984942
11	0x3d0c3beb	0.03423683
12	0x3d3d4463	0.046207797
13	0x3be25bd5	0.00690792
14	0x3c164f90	0.009174243
15	0xbda9c85a	-0.08290167
16	0xbc8c2a61	-0.017110052
17	0xbd6ccb88	-0.05781129
18	0xbd1f4596	-0.03888472
19	0x3d5e7e5c	0.054319724
20	0x3d2f981f	0.042869683
21	0x3d8c37af	0.06846558
22	0xbd82764c	-0.063702196
23	0xbc6cc1e6	-0.014450526
24	0xbc71f5a8	-0.014768042
25	0x3d0f6b79	0.035014603
26	0x3d4c4f52	0.049880333
27	0xbd7cf835	-0.061760146
28	0xbcb5efaa	-0.022209007
29	0xbcc8d285	-0.024514446
30	0x39fe5b33	0.00048514604
31	0xbd460ad1	-0.04835016
32	0xbd20514c	-0.03914003
33	0x3d374f6f	0.04475349
34	0xbcdc777e	-0.026912447
35	0xbc7b8c1a	-0.015353227
36	0xbd717fd5	-0.0589598
37	0x3cccc5fa	0.024996746
38	0x3bb2ebd7	0.005460243
39	0xbd876d6f	-0.0661267
40	0xbcb64731	-0.022250744
41	0x3c36ed66	0.011164999
42	0xbd4ab549	-0.049489293
43	0xbcb77d05	-0.022398481
44	0xbd8ef8d8	-0.06981057
45	0xbd43960a	-0.04775051
46	0xbd2f814b	-0.042847913
47	0x3cbfaa16	0.023396533
48	0x3d18e690	0.037329257
49	0x3c94833f	0.01812899
50	0x3d0f6cc7	0.035015848
51	0x398c316b	0.000267397
52	0x3d0224e5	0.031773467
53	0x3d8685b3	0.0656847
54	0xbd979240	-0.07400942
55	0xbce1801c	-0.027526908
56	0xbd472261	-0.04861677
57	0x3d046b84	0.032329097
58	0xbc090269	-0.008362391
59	0x3d73f583	0.05956031
60	0x3c8c9b0b	0.017163774
61	0x3d3fc5ae	0.04681938
62	0xbc55d2da	-0.013050759
63	0xbd6f4927	-0.058419373
64	0xbc8c92c9	-0.017159836
65	0xbd92614f	-0.071474664
66	0x3c96ff18	0.018432185
67	0x3ca56160	0.020188034
68	0xbc7188d6	-0.014742097
69	0x3d405dd2	0.046964474
70	0xbcea13ac	-0.028573833
71	0x3d004d53	0.031323742
72	0x3cbb6935	0.022877315
73	0xbd181464	-0.03712882
74	0x3c027978	0.007963531
75	0xbd270634	-0.0407774
76	0x3c2c6600	0.010522366
77	0xbd462868	-0.04837838
78	0xbc566bd7	-0.013087234
79	0xbd6d59eb	-0.05794708

weight f4 [200, 80]
0	0xbc49ed54	-0.01232465
1	0x3db37eb6	0.087644026
2	0xbd8b8fe0	-0.06814551
3	0xbd873c2b	-0.06603273
4	0x3d16a678	0.03677985
5	0xbda7b096	-0.08187978
6	0xbcfad098	-0.030617043
7	0x3b8a0b0e	0.0042127436
8	0xbda017ae	-0.078170165
9	0x3d682049	0.056671415
10	0x3d97f981	0.07420636
11	0x3b8bd77a	0.00426763
12	0x3c3174ca	0.010831067
13	0x3dd5d527	0.10441046
14	0x3db59f92	0.08868326
15	0x3d75b269	0.0599846
16	0xbd858b8a	-0.065207556
17	0x3d381a4a	0.044946946
18	0xbcd0a1c8	-0.025467768
19	0x3d65a3bd	0.056064356
20	0x3d4ee927	0.05051532
21	0xbd9767f6	-0.07392876
22	0xbda6e64f	-0.08149397
23	0x3d1d5d6b	0.03841917
24	0x3c8bc2bd	0.017060632
25	0xbd52a4df	-0.051426765
26	0x3dd962d5	0.10614554
27	0x3cc2ef99	0.02379589
28	0x3d8ac51e	0.06775878
29	0x3c443fad	0.011978072
30	0xbc815e6e	-0.015792098
31	0xbd5d51ce	-0.054033093
32	0xbd6c2361	-0.057650927
33	0xbd7a65d0	-0.061132252
34	0xbdad2f34	-0.08456269
35	0x3bce50d5	0.006296257
36	0x3d7e8001	0.062133793
37	0x3d5a4841	0.053291563
38	0xbdbb2c5d	-0.09139321
39	0x3d79aeda	0.060957767
40	0x3d64e0f4	0.055878595
41	0xbd12ae6a	-0.035810865
42	0xbd1a41f1	-0.037660543
43	0x3db0f905	0.08641247
44	0xbd10309f	-0.03520262
45	0x3de05c82	0.109551445
46	0xbd19ee68	-0.037580878
47	0x3d89c01e	0.067260966
48	0x3d82a23b	0.06378599
49	0x3d532f38	0.051558703
50	0xbdc5e9db	-0.09663745
51	0xbdb80fd5	-0.08987395
52	0x3d4449ae	0.04792183
53	0x3d27cdb3	0.040967654
54	0xbd8de9f2	-0.06929387
55	0x3d391541	0.045186285
56	0xbd92cb79	-0.071677156
57	0x3d19daa2	0.03756202
58	0x3d87facc	0.066396326
59	0x3da8993f	0.082323544
60	0xbcb88aec	-0.02252718
61	0xbc93f80e	-0.018062618
62	0xbdd9dcb8	-0.10637802
63	0xbacc579b	-0.0015590073
64	0xbcdb981f	-0.026805935
65	0x3dcd7314	0.10031715
66	0xbd4c48e4	-0.0498742
67	0xbd7dfec5	-0.062010545
68	0xbdb1df76	-0.086852
69	0xbd3635a7	-0.04448476
70	0xbd49d74c	-0.04927759
71	0xbc04e132	-0.008110331
72	0xba3fa6cc	-0.00073109264
73	0x3ce907d3	0.028446114
74	0xbd12f056	-0.035873733
75	0xbd97cff8	-0.07412714
76	0xbdb39b56	-0.08769862
77	0xbd0ab01a	-0.03385935
78	0x3dc353a3	0.09537437
79	0xbdcfe5f4	-0.10151282
80	0xbda21c73	-0.079155825
81	0x3d6b763b	0.0574858
82	0x3dc8d7bb	0.09806772
83	0xbba829c6	-0.005131933
84	0x3ccf59c5	0.02531136
85	0xbdc1429a	-0.09436531
86	0xbdbae044	-0.091248065
87	0xbcb01095	-0.021492282
88	0xbddb54f1	-0.10709561
89	0x3c233aa0	0.009962708
90	0xbc02bc1f	-0.007979422
91	0xbd584ddf	-0.05280864
92	0xbd857046	-0.06515555
93	0x3dab0d13	0.08352103
94	0x3d7ab05e	0.061203353
95	0xbd1b7796	-0.037955843
96	0xbdada80b	-0.08479317
97	0xbc617414	-0.013760585
98	0x3c2ed7ed	0.010671598
99	0x3d56a13d	0.052399863
100	0xbd04aed7	-0.032393303
101	0x3d6c2129	0.05764881
102	0xbd8b8b89	-0.068137236
103	0x3cf1877c	0.02948355
104	0xbcdb9350	-0.026803643
105	0x3c5ce754	0.013482887
106	0xbd12bbe6	-0.035823725
107	0xbd8fddbc	-0.07024714
108	0x3d17ec64	0.037090674
109	0x3c29cd67	0.010363913
110	0xbd0e3b16	-0.034724317
111	0x3d49ffc1	0.04931617
112	0xbd89e2a7	-0.06732684
113	0x3d4cb76b	0.04997961
114	0xbd15433b	-0.03644107
115	0x3d79e3d8	0.061008304
116	0x3db86f73	0.09005632
117	0xbdc34582	-0.09534742
118	0x3dec0a39	0.11525387
119	0x3cf3d325	0.029763767
120	0xbd87c986	-0.066302344
121	0xbcfbc6bd	-0.030734414
122	0x3d2d3851	0.042290036
123	0xbdc050b8	-0.09390396
124	0x3c2e914c	0.010654759
125	0xbd67c4c5	-0.05658414
126	0xbcd9d686	-0.02659155
127	0xbc2fe82e	-0.010736508
128	0x3d3e8333	0.04651184
129	0xbd9e9361	-0.07742954
130	0x3d698113	0.05700786
131	0x3bac5f92	0.0052604163
132	0xbcd106d5	-0.025515953
133	0xbda67765	-0.081282414
134	0x3d573bf9	0.05254743
135	0xbcba1f0e	-0.022719886
136	0x3ba9b91e	0.0051795384
137	0xbdddd423	-0.108314775
138	0xbdd87be8	-0.10570508
139	0x3dde120c	0.10843286
140	0x3bea93a6	0.0071587143
141	0x3d0bb73a	0.034110285
142	0x3d8f9dd1	0.07012523
143	0xbd856af7	-0.065145425
144	0x3d351c49	0.044216428
145	0x3c7dcbf8	0.0154905245
146	0x3dc652fb	0.09683796
147	0x3bd0c2d6	0.0063708825
148	0xbde5a97b	-0.112139665
149	0x3d70c496	0.05878123
150	0xbd5cf2fc	-0.053942665
151	0xbd45d685	-0.048300285
152	0xbd4d5c18	-0.050136656
153	0x3d0f4440	0.034977198
154	0xbc54b74e	-0.012983156
155	0xbd5d56a5	-0.05403771
156	0xbd3c4a01	-0.045969013
157	0x3da4e5be	0.08051632
158	0xbdbbc87c	-0.09169099
159	0x3d137413	0.03599937
160	0x3bbf24e2	0.005833254
161	0x3d240e16	0.040052496
162	0x3de1efcb	0.11032065
163	0xbd336df0	-0.043806016
164	0x3d1b060b	0.03784756
165	0xbc48d4a9	-0.012257733
166	0xbdc8d862	-0.09806897
167	0x3d7397d5	0.05947097
168	0x3cdb12c7	0.026742352
169	0x3c1f9154	0.009739239
170	0x3d2571e1	0.040391807
171	0x3cd06e62	0.02544326
172	0x3d4ccb3d	0.04999851
173	0x3d38ef70	0.04515022
174	0x3dbfa06b	0.09356769
175	0xbd4e9c42	-0.050441988
176	0x3d98c194	0.07458797
177	0x3cdc5a9b	0.026898673
178	0x3c72ddad	0.014823359
179	0x3dad6267	0.084660344
180	0x3d3f4016	0.046691976
181	0x3d667afa	0.056269623
182	0xbd21b91c	-0.039483175
183	0x3d7bff56	0.061522804
184	0x3de5b0cf	0.11215364
185	0x3cef6e42	0.02922738
186	0x3d66acc1	0.056317095
187	0x3d7d2654	0.06180413
188	0x3d635ec3	0.055510294
189	0x3d330cd5	0.04371341
190	0xbdb180ca	-0.08667143
191	0x3dc51ceb	0.09624656
192	0xbc5967a3	-0.013269338
193	0xbd98b295	-0.07455937
194	0xbd70bc24	-0.058773175
195	0x3d7789b1	0.060434047
196	0x3c0ff08b	0.008785377
197	0xbdc2b258	-0.095066726
198	0xbc929801	-0.017894747
199	0xbccba199	-0.02485733
200	0xbd0ad44c	-0.03389387
201	0x3ce81b7e	0.028333422
202	0xbd981904	-0.07426646
203	0xbd97f428	-0.07419616
204	0x3d7bad3a	0.0614445
205	0x3dbc9a0e	0.09209071
206	0xbd81e4a0	-0.06342435
207	0x3ca43325	0.020043919
208	0xbceb2786	-0.02870537
209	0xbd55f8ae	-0.052239113
210	0xbd55a7a0	-0.052161813
211	0xbcb980f8	-0.022644505
212	0x3cd1056d	0.025515283
213	0xbd71322e	-0.058885746
214	0x3dbdf84f	0.09275877
215	0x3d3c6931	0.045998756
216	0xbc26db87	-0.010184175
217	0x3ca01024	0.019538946
218	0xbda9cbe2	-0.08290841
219	0xbd5f9f14	-0.054595068
220	0xbc227245	-0.009914939
221	0xbd43d8c2	-0.04781414
222	0xbd87802b	-0.06616243
223	0x3d8ad18d	0.0677825
224	0x3de91fdd	0.113830306
225	0x3dd43360	0.103613615
226	0xbd43a4a9	-0.047764454
227	0x3cb7c83f	0.022434352
228	0xbd340854	-0.043953255
229	0xbc2b0d2a	-0.01044015
230	0x3d1fbebe	0.039000265
231	0xbdd0bb9b	-0.10192033
232	0xbcc2ec8c	-0.023794435
233	0xbdb056c9	-0.08610303
234	0xbdb41eb4	-0.08794919
235	0xbc17b955	-0.009260495
236	0xbba04a92	-0.004891702
237	0x3c4eb97c	0.012617465
238	0xbd86ec7c	-0.065880746
239	0x3d1fd250	0.03901893
240	0x3d8233e6	0.06357555
241	0xbc5cd1fb	-0.013477798
242	0x3d342b85	0.043986816
243	0x3d17ef94	0.037093714
244	0xbd9d8357	-0.07691067
245	0x3dd0b01d	0.10189841
246	0x3da62e52	0.08114304
247	0xbda31f81	-0.07964993
248	0xbd627247	-0.055284765
249	0xbd6c472d	-0.057685066
250	0xbd243d45	-0.040097494
251	0xbd4953bd	-0.049152125
252	0x3ddc3cb8	0.10753769
253	0xbdc04386	-0.09387879
254	0x3c8f904a	0.017524857
255	0x3dc72d41	0.097254284

bias f4 [200]
0	0x3d7aa2d0	0.061190426
1	0x3da90d1f	0.08254456
2	0xbd465dcb	-0.04842929
3	0xbd60b099	-0.054855917
4	0xbd2d958e	-0.042378955
5	0xbddd7f43	-0.10815289
6	0x3d86a50a	0.065744475
7	0xbdc408cd	-0.09571991
8	0x3dee0952	0.116228715
9	0x3d29f2b6	0.041491233
10	0x3d1e8387	0.038699653
11	0xbdcf6fe9	-0.10128767
12	0xbc9f1275	-0.01941798
13	0x3d3235e7	0.043508437
14	0x3c278624	0.010224853
15	0x3d7096a5	0.058737416
16	0x3da60b0e	0.08107577
17	0x3c8eff98	0.017455861
18	0x3ddeda5d	0.10881493
19	0x3dc51cd1	0.09624637
20	0xbdc20279	-0.09473128
21	0x3de401e5	0.11133174
22	0xbd9e78f1	-0.077379115
23	0xbd007594	-0.03136213
24	0x3d9d82c2	0.07690956
25	0xbd03a722	-0.032141812
26	0xbd84803d	-0.06469772
27	0xbde208b2	-0.11036815
28	0x3dc989a6	0.098407075
29	0xbda26c88	-0.07930857
30	0xbc370077	-0.011169544
31	0xbc7aad2c	-0.015300076
32	0xbd9513aa	-0.07279141
33	0x3d52b33b	0.05144046
34	0x3dcae268	0.09906465
35	0x3d8f784e	0.07005368
36	0xbd9fdb82	-0.0780554
37	0xbdd3f889	-0.10350139
38	0x3c09aa17	0.008402369
39	0x3d099b45	0.033595342
40	0xbd076946	-0.03305938
41	0xbd2771f7	-0.04088017
42	0xbdd24c19	-0.10268421
43	0x3d77b7eb	0.060478132
44	0xbce0ec5f	-0.02745646
45	0x3d9f6ee8	0.077848256
46	0x3d8b9deb	0.0681723
47	0x3d15043e	0.036381
48	0xbd11fddf	-0.0356425
49	0xbc5c9b72	-0.013464795
50	0x3ca423bc	0.02003657
51	0x3b5847a2	0.003300168
52	0xbdb69522	-0.089151636
53	0xbd4e7641	-0.050405744
54	0x3cd6574a	0.02616467
55	0xbd94d5c2	-0.072673336
56	0xbbb346c7	-0.005471084
57	0xbd92ddf4	-0.071712404
58	0x3d45c65f	0.048284885
59	0xbd7b2230	-0.0613119
60	0xbda73910	-0.08165181
61	0x3dd59d05	0.1043034
62	0xbd9e9ada	-0.07744379
63	0x3dd6f19a	0.104953006
64	0xbc53d3ca	-0.012928912
65	0x3dd3f0fd	0.10348699
66	0xbcb18718	-0.021670863
67	0x3d0377c2	0.03209663
68	0x3dd61260	0.104527235
69	0x3da26b9d	0.07930682
70	0x3bc54193	0.00601978
71	0xbd6e825b	-0.058229785
72	0x3c95b7bc	0.018276088
73	0xbd7676f4	-0.060172036
74	0xbd94939f	-0.07254719
75	0xbd87bfa4	-0.066283494
76	0xbdb55a71	-0.08855141
77	0xbb51b469	-0.0031998402
78	0x3d0c1682	0.034201153
79	0x3d9f305c	0.07772896
80	0x3d919ce0	0.0711
81	0x3dad92e4	0.08475283
82	0xbca8d509	-0.020609396
83	0xbde47817	-0.11155718
84	0xbda726fe	-0.08161734
85	0xbd1c3bdf	-0.038143035
86	0x3db4d121	0.08828951
87	0xbd3d7c5c	-0.046261176
88	0xbd0829de	-0.033243053
89	0xbc9a6169	-0.018845277
90	0x3d05bd90	0.032651484
91	0xbd14c8ae	-0.036324196
92	0xbd85f0ea	-0.06540091
93	0xbd86216d	-0.06549344
94	0xbd85fe04	-0.0654259
95	0xbb934c60	-0.0044951886
96	0xbd92aeb0	-0.07162225
97	0x3de6b541	0.1126504
98	0x3db1256d	0.086497165
99	0x3c3c1e42	0.011481823
100	0xbdc6e530	-0.09711683
101	0xbc80a8a0	-0.015705407
102	0x3cf9bced	0.030485595
103	0xbbbbdc16	-0.0057330234
104	0xbdccc261	-0.09998012
105	0x3da6849e	0.081307635
106	0xbcc13c9e	-0.023588475
107	0xbd92d506	-0.07169537
108	0xbde30775	-0.11085407
109	0x3cd5120e	0.026009586
110	0x3dbc8b46	0.09206252
111	0xbcdd4c26	-0.02701385
112	0xbde13e30	-0.109981894
113	0xbd351ee8	-0.044218928
114	0x3da504cb	0.08057555
115	0xbd762401	-0.06009293
116	0xbd2535c7	-0.04033449
117	0x3da03518	0.07822627
118	0xbbb4cd41	-0.0055176322
119	0x3d8a6c98	0.06758994
120	0x3d6a5f6c	0.057219908
121	0xbd10bc4b	-0.03533582
122	0xbd7fb0ff	-0.062424656
123	0x3d9a19f9	0.07524485
124	0x3d9501f0	0.0727576
125	0x3d9e3e66	0.07726745
126	0x3dce6444	0.10077718
127	0x3d6e8c5a	0.05823932
128	0xbda55ad0	-0.08073962
129	0xbce42835	-0.027851203
130	0x3d2d904b	0.042373937
131	0x3c02f0b3	0.0079919575
132	0x3d29b95d	0.04143654
133	0x3b01705f	0.0019750816
134	0x3d74b1f6	0.05974003
135	0x3bd56f15	0.006513486
136	0x3cd58624	0.02606494
137	0xbd4d95cc	-0.050191686
138	0x3c1ebd3a	0.00968867
139	0x3db4a465	0.08820418
140	0xbcb350f3	-0.021889186
141	0x3c64400c	0.013931286
142	0xbd301432	-0.04298801
143	0x3c7e9953	0.015539485
144	0x3d5249d8	0.051339954
145	0x3dad3079	0.08456511
146	0xbd0cd8d8	-0.034386486
147	0x39851ff2	0.00025391538
148	0x3c56597c	0.013082858
149	0x3d936af8	0.07198137
150	0x3dc710cb	0.0972
151	0x3dcad8c6	0.099046275
152	0x3c86a5a1	0.0164364
153	0x3ae1a374	0.001721485
154	0x3c2cd4f3	0.010548818
155	0x3cfdb9b4	0.03097234
156	0x3d8b959c	0.06815645
157	0xbda61f66	-0.081114575
158	0x3ddd6255	0.10809771
159	0xbc5f16ae	-0.013616247
160	0xbd9d20b0	-0.0767225
161	0x3d853a57	0.06505268
162	0xbdacf8f4	-0.084459215
163	0xbbf4812d	-0.007461688
164	0x3d0df709	0.03465942
165	0x3d37b088	0.044846088
166	0x3b9689fe	0.0045940867
167	0x3da6b2cd	0.08139572
168	0xbd9a5fbc	-0.07537791
169	0xbde50ab5	-0.11183683
170	0xbda28d22	-0.07937075
171	0xbd865590	-0.065592885
172	0x3d211eb7	0.039335933
173	0xbc04f3be	-0.008114753
174	0xbd9e4e7d	-0.07729814
175	0xbd05b474	-0.032642797
176	0x3db59b09	0.08867461
177	0x3da189d9	0.078876205
178	0xbd9e8d6b	-0.07741817
179	0xbd703845	-0.058647413
180	0xbdd627e9	-0.10456831
181	0xbd99249d	-0.074776866
182	0x3d14e3e6	0.036350153
183	0xbd97717e	-0.07394694
184	0x3dd79266	0.1052597
185	0x3d90773f	0.070539944
186	0x3d1fedfd	0.039045323
187	0xbd59d512	-0.053181715
188	0x3dd5291d	0.10408232
189	0xbd019ed7	-0.031645622
190	0xbdc04974	-0.0938901
191	0xbc91b5fa	-0.017786968
192	0xbd5f14b5	-0.054463107
193	0xbd146c90	-0.036236346
194	0xbdb48f54	-0.088164
195	0xbd9fdac7	-0.078054
196	0xbd844a9b	-0.06459542
197	0xbd7acad5	-0.061228592
198	0x3d8d00d3	0.06884923
199	0xbc0d24aa	-0.008614698

weight f4 [200, 80]
0	0x3c68dd19	0.01421287
1	0xbba7f18a	-0.0051252292
2	0xbd7503d0	-0.05981809
3	0x3db40fc0	0.087920666
4	0x3d09335d	0.03349625
5	0x3d3aa19d	0.045564283
6	0xbd85c268	-0.06531221
7	0xbb633907	-0.0034671442
8	0xbd7f3a4d	-0.06231146
9	0xbd8b358a	-0.06797321
10	0x3dbc95b6	0.092082426
11	0x3d90ec36	0.07076304
12	0xbbe360f9	-0.0069390503
13	0xbd48f4ee	-0.04906171
14	0x3d9f41c3	0.07776215
15	0xbd9c5578	-0.07633489
16	0x3d9ff064	0.07809523
17	0xbcbf3871	-0.023342343
18	0x3d0d4e09	0.03449825
19	0xbd0b43de	-0.03400027
20	0xbdb5e01c	-0.08880636
21	0xbdab3e29	-0.083614655
22	0x3d33a83b	0.04386161
23	0xbbe4f613	-0.006987342
24	0x3d4fc66d	0.050726343
25	0x3cb05aa5	0.021527598
26	0x3db3c0fa	0.08777042
27	0x3db856b0	0.09000909
28	0xbd77b9b7	-0.060479846
29	0x3c8cb2ac	0.017175041
30	0x3d7cedc0	0.061750174
31	0xbd48b378	-0.04899928
32	0x3c664103	0.014053586
33	0xbcf455dd	-0.029826099
34	0xbd89958c	-0.06717977
35	0x3dbff00a	0.09371956
36	0xbd2d5b0d	-0.04232316
37	0x3d6dbc7f	0.058041092
38	0x3d23fa15	0.04003342
39	0xbc57d98f	-0.013174429
40	0xbdb9bbd7	-0.09069031
41	0x3d6ec187	0.05829003
42	0xbc74ce22	-0.014941724
43	0x3d9f3283	0.07773306
44	0x3b2896bd	0.0025724613
45	0xbda6896e	-0.081316814
46	0xbdcabce1	-0.09899307
47	0xbd9f2cc4	-0.0777221
48	0x3d288a1c	0.041147336
49	0xbdc9199e	-0.09819339
50	0xbdacdbc7	-0.08440357
51	0xbd9a3f65	-0.07531623
52	0x3daafef5	0.083494104
53	0x3d40918d	0.047013808
54	0x3d87c7ec	0.06629929
55	0xbd964bf7	-0.07338708
56	0xbdc44b51	-0.09584678
57	0x3da587d2	0.08082546
58	0xbdc046e6	-0.09388523
59	0xbd8bd407	-0.068275504
60	0xbd04b46d	-0.03239863
61	0xbdc5a141	-0.09649897
62	0xbd4adf5f	-0.04952943
63	0x3da76193	0.08172908
64	0xbdb2d858	-0.087326705
65	0x3bcf415d	0.0063249306
66	0x3d9498a2	0.07255675
67	0x3cd443cc	0.025911234
68	0x3d88000a	0.066406325
69	0x3d24d90f	0.040246066
70	0xbd1db6a8	-0.038504273
71	0x3b6af077	0.0035848895
72	0xbdd072ad	-0.10178123
73	0xbdc693a6	-0.096961305
74	0x3d879a2a	0.06621201
75	0xbcad5442	-0.021158341
76	0x3dcb2f7f	0.099211685
77	0x3d42e43b	0.04758094
78	0xbca8da9a	-0.02061205
79	0x3cf6b336	0.030114751
80	0x3d4ec351	0.050479237
81	0xbd35ba63	-0.044367205
82	0xbd94a2fa	-0.07257648
83	0xbdc33621	-0.09531809
84	0x3dcd6c73	0.10030451
85	0x3c5dbcd1	0.013533787
86	0xbd46143f	-0.048359152
87	0xbdf2afd0	-0.1184994
88	0x3bcda965	0.006276297
89	0xbb7071fe	-0.0036689038
90	0x3da58854	0.08082643
91	0xbd62a4a3	-0.05533279
92	0x3c37eeec	0.011226397
93	0x3ae20fd8	0.0017247153
94	0x3d483c50	0.048885643
95	0xbbe4a72d	-0.0069779367
96	0xbd348e6b	-0.044081133
97	0xbdb14db7	-0.08657401
98	0x3dd106a3	0.10206344
99	0xbc6f50f4	-0.014606703
100	0xbce67382	-0.02813125
101	0xbd3447cf	-0.044013795
102	0xbcc7be27	-0.024382664
103	0xbd4742e4	-0.048647776
104	0x3c9b5475	0.01896117
105	0xbce40f08	-0.027839199
106	0x3cdc0ecb	0.026862523
107	0x3cb15efb	0.021651736
108	0xbd8e2672	-0.069409266
109	0x3dc13728	0.09434348
110	0x3cb9d066	0.02268238
111	0xbd6e4b54	-0.058177307
112	0xbca66699	-0.020312594
113	0xbd058753	-0.03259976
114	0xbc407b4f	-0.011748149
115	0xbdd868b8	-0.105668485
116	0xbd8d5347	-0.069006495
117	0x3d9b5708	0.07584959
118	0xbd6406dc	-0.055670604
119	0x3dc8fd16	0.09813897
120	0x3ddf45e5	0.10902003
121	0xbb84456d	-0.0040365965
122	0x3d035486	0.03206303
123	0x3bd12ee5	0.006383764
124	0x3d0e527c	0.034746632
125	0xbda8331c	-0.08212873
126	0x3d6af16b	0.05735914
127	0x3d659f64	0.05606021
128	0xbcafd4ad	-0.021463716
129	0xbda206b2	-0.07911433
130	0xbda56b06	-0.08077054
131	0xbcc82489	-0.024431484
132	0x3d5ea7ef	0.054359373
133	0x3c35664f	0.011071756
134	0x3dc7603a	0.09735151
135	0xbd01d3dd	-0.03169619
136	0x3d893a9a	0.067006305
137	0x3ce3eab9	0.027821885
138	0x3d593f99	0.053039167
139	0xbd7df17b	-0.06199787
140	0x3dc1412c	0.09436259
141	0x3db741b0	0.08948076
142	0x3a9ebfaf	0.001211157
143	0x3d902e9f	0.07040142
144	0xbb57b010	-0.0032911338
145	0xbd9fd18c	-0.0780364
146	0x3d3bacea	0.0458192
147	0xbdae16a4	-0.08500412
148	0x3d826811	0.06367505
149	0x3d5d1384	0.05397369
150	0xbd08eb63	-0.033427607
151	0x3dcc1ee3	0.09966829
152	0x3c44286d	0.011972529
153	0xbc0c88b0	-0.008577511
154	0xbd31fc78	-0.043453664
155	0x3d4c792d	0.04992025
156	0xbd4ed283	-0.05049373
157	0x3dd4d0fa	0.103914216
158	0x3dc9b425	0.09848813
159	0x3cb0d946	0.021587979
160	0xbd3d308c	-0.046188876
161	0x3d4023ab	0.046909016
162	0xbd776e18	-0.060407728
163	0xbd86626f	-0.065617435
164	0xbc8e020f	-0.017334966
165	0x3d803e7a	0.062619165
166	0xbd2c536b	-0.04207174
167	0xbb38f283	-0.002822072
168	0xbbfde0ff	-0.007747769
169	0x3d227245	0.039659757
170	0x3dcb1ca0	0.09917569
171	0xbc182c85	-0.009287958
172	0x3d962e3a	0.07333036
173	0x3da4ba82	0.08043386
174	0x3dc25095	0.09488026
175	0x3c972523	0.018450325
176	0xbbfc4c45	-0.0076995217
177	0x3d574a14	0.05256088
178	0x3d95e40b	0.07318886
179	0xbdb81dc3	-0.089900516
180	0x3dbf4f94	0.0934135
181	0xbc00fd22	-0.007872852
182	0xbd62554d	-0.05525713
183	0xbd6c0716	-0.057623945
184	0x3d62a9a5	0.055337567
185	0x3dc7d7ca	0.09757955
186	0xba214bce	-0.00061529584
187	0x3c353e10	0.01106216
188	0xbd3fbc51	-0.046810452
189	0x3da96dcf	0.082728975
190	0x3d4ceb29	0.050028954
191	0x3c7e47e9	0.015520074
192	0xbda144d2	-0.078744546
193	0xbb30ed65	-0.0026996967
194	0x3df30822	0.118667856
195	0x3b27dcd1	0.0025613795
196	0xbcf3b965	-0.029751489
197	0xbd9a1ef5	-0.07525436
198	0xbc40ec40	-0.011775076
199	0xbdaa3bc7	-0.08312183
200	0x3cce9518	0.025217578
201	0xbda7690f	-0.08174335
202	0x3dc27e54	0.094967514
203	0x3dfc750a	0.12327011
204	0xbac93a72	-0.0015352501
205	0xbcbbea1e	-0.022938784
206	0xbcbc5594	-0.022990026
207	0xbcc6aebb	-0.02425324
208	0xbc636e77	-0.013881317
209	0xbb9bd3e4	-0.004755484
210	0xbdc030fd	-0.09384344
211	0xbd712733	-0.058875274
212	0xbd2a34b9	-0.041554186
213	0x3d7bde61	0.061491374
214	0x3d5642aa	0.05230967
215	0xbc29ce25	-0.01036409
216	0xbdec650d	-0.115427114
217	0x3d87b277	0.06625836
218	0xbd0be288	-0.034151584
219	0x3c80ce90	0.015723497
220	0x3dbd235d	0.09235261
221	0xbdbbf158	-0.09176892
222	0xbc83530b	-0.016030809
223	0xbda43700	-0.08018303
224	0xbc6e8909	-0.014559039
225	0x3ca64330	0.02029571
226	0xbd889f84	-0.0667105
227	0x3d30dc9f	0.04317915
228	0x3d2c79e8	0.042108446
229	0xbdbcf99e	-0.09227298
230	0xbd3f7f48	-0.046752244
231	0xbbfdfd49	-0.007751141
232	0x3dc2e0f5	0.095155634
233	0xbd80f448	-0.06296593
234	0xbc30daca	-0.010794351
235	0x3dcfd611	0.10148252
236	0xbd82f163	-0.06393697
237	0xbd07095e	-0.032967918
238	0x3de28b98	0.11061782
239	0x3d73f681	0.059561256
240	0x3c7338ee	0.014845116
241	0x3dc8d01a	0.09805317
242	0x3d1fcdf5	0.039014775
243	0xbde84d51	-0.11342872
244	0x3d043e1d	0.0322858
245	0xbb303832	-0.0026888964
246	0x3dc38579	0.09546942
247	0xbd14af19	-0.0362998
248	0x3b87be85	0.0041425847
249	0xbc98a75c	-0.01863449
250	0xbd0cc001	-0.034362797
251	0x3c9cf5e0	0.019160211
252	0xbce9cb16	-0.028539222
253	0x3d8841e9	0.06653196
254	0xbdd940be	-0.10608052
255	0xbd67e14d	-0.056611348
